PPO/checkpoint_critic_ppo449.pth (torch_old, 18682 bytes, 3 tensors)

fcs1.weight f4 [128, 33]
-0.6195867 0.028000811 0.563125 -0.23622487 -0.45346317 0.5742119 0.42101067 -0.22140445
0.23310693 -0.3127412 -0.4060815 -0.17756999 0.44094458 0.3720557 -0.7161493 -0.020930992
-0.38455513 -0.2681013 -0.36049792 -0.1404213 0.060977977 0.1794467 -0.48482922 -0.12295901
0.19043861 -0.12800235 -0.25107998 0.34493202 -0.36225757 0.01970361 -0.30210477 -0.002555713
0.81091255 -0.05168366 0.04671074 -0.07778868 -0.43794903 0.7226125 -0.6892516 0.6327981
-0.27555534 0.5520608 -0.5892395 -0.08711799 0.121828616 0.13988782 0.48580644 -0.01426131
-0.46887815 -0.0082769785 0.0461202 -0.47094148 0.01534631 0.066144384 0.49103886 0.6973203
0.69639987 0.01102992 0.0796495 0.06379458 0.5691328 0.41902217 0.023571188 -0.61239314
0.014753139 -3.4893527 -0.7566788 0.076189734 -0.5227802 -0.72297204 -0.5627986 0.50590366
0.08600669 0.48467007 -0.7398664 -0.2324138 -0.021956071 -0.15121895 -0.3725236 1.2532399
-0.23831058 -0.24844766 0.12352722 0.019944992 0.45177 -0.102733426 -0.098145135 -0.28695545
0.52166605 -0.13962793 -0.33301625 0.061677873 -0.47962463 0.45872065 0.35973272 -0.005027948
-0.46745136 0.029618016 2.0551803 0.00085260713 -0.060228728 0.63142437 -0.23648576 -0.23389317
-0.698922 0.82419425 0.38602456 -0.0706781 -0.75195825 0.38150555 -0.0006487104 0.15769382
0.049655534 0.18607603 -0.9070679 -0.47043055 0.020911189 -0.15815865 -0.22161333 -0.0049681067
0.32532308 0.23880926 0.23567209 -0.10825982 -0.4322948 0.23235 0.57261825 0.3528529
0.024235083 -0.54398715 0.024094375 -3.7815597 0.57605004 0.1390531 0.29139838 0.39811015
-0.17369346 -1.3859185 0.37905005 0.0377057 0.27578476 -0.19974157 0.3789136 0.09261299
0.09445232 -0.10318007 -0.07486289 0.13895404 0.21603009 0.36990416 0.2687787 0.25812426
0.031524308 0.14259373 -0.109994344 -0.5620399 -0.08731038 0.0062836222 -0.16890039 0.91139305
-0.23164853 0.022427695 -0.8847525 0.0033628438 -5.096517 -0.057164583 0.32996804 0.20823413
0.3626653 1.7175199 0.056526747 -0.044612613 0.10572674 -1.716163 -0.99974334 0.09476188
0.13467026 -0.58019525 -0.24303624 0.03946145 0.2529971 0.20022263 0.0393069 -1.4465147
0.27895725 0.015756767 0.07256377 0.18834816 -0.36798972 0.2260546 -0.53301436 0.066219695
0.23291782 -0.4471717 0.023437535 -0.24849245 -0.00080212764 -2.1485026 0.59595495 0.01760858
-0.5353679 -0.12284032 0.6190061 -0.3350655 0.38440755 -0.0024848578 0.14600693 0.14083247
0.24482621 0.4687325 -0.17739326 -0.23936887 0.26673338 0.043918215 0.7693891 0.17362864
0.7001393 -0.09846769 0.5521579 0.14196266 0.31849638 -0.64782923 -0.09238949 0.51125854
0.093809105 -0.64233196 -0.16064337 -0.0041661635 0.6505474 -0.029168665 -1.026495 -0.05291053
-0.26890993 -0.04727027 0.21763638 0.69114584 -0.3148266 0.52064097 0.43911856 -0.69521016
-0.8653029 -0.59487253 0.009591477 0.34374407 -0.56964856 0.26061374 0.35142803 -0.5073027
-0.34586078 -0.053892486 -0.38661048 -0.6167795 0.3532744 -0.22763787 0.11383599 0.2886309
00000000: 3c9d 1ebf f561 e53c f628 103f efe4 71be
00000010: 532c e8be 8dff 123f b68e d73e d9b7 62be
00000020: 95b3 6e3e 9d1f a0be eae9 cfbe e8d4 35be
00000030: 7dc3 e13e 167e be3e 8f55 37bf 7977 abbc
00000040: 69e4 c4be 9344 89be 2f93 b8be 9aca 0fbe
00000050: 0bc4 793d e0c0 373e 893b f8be efd1 fbbd
00000060: 5702 433e 0c13 03be 8e8d 80be ee9a b03e
00000070: d379 b9be 7769 a13c 7aad 9abe c07d 27bb
00000080: f797 4f3f 3fb2 53bd c353 3f3d ac4f 9fbd
00000090: db3a e0be 22fd 383f cb72 30bf 0eff 213f
000000a0: 9715 8dbe db53 0d3f 66d8 16bf eb6a b2bd
000000b0: 4881 f93d c13e 0f3e 9fbb f83e 45a8 69bc
000000c0: cc10 f0be 2a9c 07bc 89e8 3c3d 3e1f f1be
000000d0: 176f 7b3c b576 873d 7269 fb3e 9583 323f
000000e0: 4347 323f d6b6 343c 471f a33d bca6 823d
000000f0: b0b2 113f 138a d63e 5d18 c13c ccc5 1cbf
00000100: 26b7 713c 8e51 5fc0 b4b5 41bf 5d09 9c3d
00000110: ecd4 05bf b214 39bf 9213 10bf e782 013f
00000120: 4724 b03d ad26 f83e e267 3dbf e2fd 6dbe
00000130: 38dd b3bc 24d9 1abe 6abb bebe 2a6a a03f
00000140: b007 74be 1069 7ebe d7fb fc3d ae63 a33c
00000150: 664e e73e e765 d2bd 5100 c9bd d3eb 92be
00000160: e88b 053f a0fa 0ebe 1b81 aabe f0a1 7c3d
00000170: 5c91 f5be 6fdd ea3e e32e b83e 7cc1 a4bb
00000180: c955 efbe 7ba1 f23c 1388 0340 7f81 5f3a
00000190: 66b2 76bd 07a5 213f 5329 72be b181 6fbe
000001a0: 8dec 32bf 65fe 523f 03a5 c53e aebf 90bd
000001b0: 5680 40bf b254 c33e 380e 2aba 7d7a 213e
000001c0: 9a63 4b3d b78a 3e3e 9a35 68bf 46dc f0be
000001d0: f14d ab3c 57f4 21be 9bee 62be 80cb a2bb
000001e0: bf90 a63e 6a8a 743e 0654 713e 53b7 ddbd
000001f0: be55 ddbe 29ed 6d3e 1c97 123f 23a9 b43e
00000200: a788 c63c be42 0bbf 9161 c53c 1305 72c0
00000210: 0478 133f f063 0e3e 2b32 953e 18d5 cb3e
00000220: b3dc 31be c765 b1bf d912 c23e 4b71 1a3d
00000230: a933 8d3e 0e89 4cbe f700 c23e e1ab bd3d
00000240: 3870 c13d 1350 d3bd b751 99bd f849 0e3e
00000250: fe36 5d3e 1464 bd3e 5d9d 893e dd28 843e
00000260: a21f 013d 1704 123e b744 e1bd d9e1 0fbf
00000270: c9cf b2bd d8e6 cd3b 39f4 2cbe 0e51 693f
00000280: 4635 6dbe 49ba b73c 247f 62bf 2863 5c3b
00000290: ab16 a3c0 6925 6abd 92f1 a83e 543b 553e
000002a0: 44af b93e b1d7 db3f 9788 673d b7bb 36bd
000002b0: 4387 d83d 3bab dbbf 2eef 7fbf 8412 c23d
000002c0: 00e7 093e ad87 14bf 7ede 78be 54a2 213d
000002d0: d688 813e 2907 4d3e 4600 213d 6527 b9bf
000002e0: 7cd3 8e3e 5614 813c 509c 943d 57de 403e
000002f0: 2669 bcbe db7a 673e a173 08bf 319e 873d
00000300: 0282 6e3e b0f3 e4be 1300 c03c ce74 7ebe
00000310: e045 52ba 1181 09c0 8190 183f de3f 903c
00000320: df0d 09bf b593 fbbd 2f77 1e3f b58d abbe
00000330: 11d1 c43e ffd8 22bb d782 153e 6336 103e
00000340: b9b3 7a3e b5fd ef3e 94a6 35be 1d1d 75be
00000350: 4791 883e 96e3 333d aff6 443f b5cb 313e
00000360: 543c 333f 6ea9 c9bd 385a 0d3f a95e 113e
00000370: f511 a33e 23d8 25bf b336 bdbd d7e1 023f
00000380: fd1e c03d de6f 24bf b27f 24be 5084 88bb
00000390: 468a 263f 20f3 eebc 3064 83bf b6b8 58bd
000003a0: 90ae 89be 789e 41bd 12dc 5e3e efee 303f
000003b0: f430 a1be ba48 053f 26d4 e03e 4bf9 31bf
000003c0: 7e84 5dbf 9149 18bf 9225 1d3c 39ff af3e
000003d0: 7dd4 11bf 2a6f 853e 60ee b33e 97de 01bf
000003e0: aa14 b1be 5ebe 5cbd cff1 c5be 43e5 1dbf
000003f0: 62e0 b43e e719 69be d822 e93d 6ec7 933e

fcs1.bias f4 [128]
-0.25356436 -0.4491039 -0.27459493 -0.39673343 -0.98501164 -0.22222388 0.5264204 -0.2506403
0.34224707 0.2440374 -0.34316793 -0.74563533 0.18250479 0.3536935 -1.0148404 -1.5234607
-0.7596492 -0.07916953 -0.6133974 -0.31351137 -0.655388 -0.77147996 -0.7427295 -0.07528771
-0.391299 0.048737016 0.42095453 0.06841593 -0.8803654 -0.039612293 0.08287751 -0.6892555
0.22038881 -0.4419989 0.11874282 -0.16933264 -0.11744668 -1.0352315 -0.2884014 -0.6957581
-0.38771093 -0.4457092 -0.2726303 0.05530093 0.14031173 -0.17874175 0.088589534 -0.69884884
-1.2068434 0.11442508 -0.8791011 0.21389094 -1.2087039 -1.8272126 0.26609835 -0.62256193
-0.33103573 -0.75070167 -0.6141414 -1.3129383 0.814129 0.16771111 0.580781 -0.59466434
-0.26394036 -0.25371537 0.39457098 0.05873751 0.37445006 0.621132 -0.3389563 -0.3756573
-0.09737044 -0.18738042 0.07523061 0.09362433 0.1915766 -1.0000385 -0.74047583 0.3322371
0.201495 0.051538534 0.38755506 -0.28146195 0.15883905 -1.302596 -0.33431917 0.28914216
-1.1796366 0.017948193 0.8442409 -0.63414264 -0.034202665 0.25472513 -0.69155556 0.8914381
-0.3615307 -0.40210935 -0.8566469 -0.9259457 -0.45039207 -0.6294879 -0.051584836 -0.17250513
0.19098575 -0.9283717 0.38653386 0.10424109 -0.9713468 -1.1011163 0.30865607 0.42443857
0.31269097 0.0029245338 -0.18038957 -0.7270207 -0.64946496 0.25535345 -0.18483815 -0.40410206
-0.21411069 -0.7825358 0.37074432 -0.6692702 0.26854604 -1.1690441 0.051037118 -0.5007432
00000000: 30d3 81be f2f0 e5be b597 8cbe a520 cbbe
00000010: b929 7cbf a88e 63be 7dc3 063f ed53 80be
00000020: 023b af3e f1e4 793e b5b3 afbe f5e1 3ebf
00000030: 89e2 3a3e 5017 b53e 4ae6 81bf c300 c3bf
00000040: 5f78 42bf a223 a2bd 9d07 1dbf 9084 a0be
00000050: 82c7 27bf b67f 45bf 8523 3ebf 7130 9abd
00000060: 5858 c8be 77a0 473d 5a87 d73e a71d 8c3d
00000070: a05f 61bf 8040 22bd afbb a93d 0c73 30bf
00000080: 9bad 613e ae4d e2be 702f f33d 8965 2dbe
00000090: e387 f0bd 7782 84bf 59a9 93be 341d 32bf
000000a0: 0c82 c6be ff33 e4be 3396 8bbe 3a83 623d
000000b0: e1ad 0f3e 1408 37be 6e6e b53d c2e7 32bf
000000c0: d879 9abf b257 ea3d c50c 61bf 3a06 5b3e
000000d0: cfb6 9abf 1ae2 e9bf 0b3e 883e 3860 1fbf
000000e0: 847d a9be fc2d 40bf 5f38 1dbf 5d0e a8bf
000000f0: c26a 503f 76bc 2b3e 10ae 143f ec3b 18bf
00000100: 3123 87be fbe6 81be 3505 ca3e be96 703d
00000110: ebb7 bf3e 8202 1f3f ae8b adbe 2756 c0be
00000120: 276a c7bd a7e0 3fbe 8212 9a3d 1dbe bf3d
00000130: a82c 443e 4301 80bf d38f 3dbf fb1a aa3e
00000140: b554 4e3e 121a 533d 9e6d c63e c81b 90be
00000150: b4a6 223e 77bb a6bf e22b abbe 710a 943e
00000160: 55fe 96bf 1708 933c 2c20 583f 2c57 22bf
00000170: 1818 0cbd 556b 823e c909 31bf 4a35 643f
00000180: 8d1a b9be 47e1 cdbe 364d 5bbf c70a 6dbf
00000190: ca99 e6be 1e26 21bf 9f4a 53bd 2fa5 30be
000001a0: c591 433e c5a9 6dbf c4e7 c53e 5a7c d53d
000001b0: 2faa 78bf 61f1 8cbf 2b08 9e3e 0350 d93e
000001c0: 0819 a03e 89a9 3f3b 0bb8 38be 071e 3abf
000001d0: 5643 26bf b0bd 823e 3646 3dbe 77e6 cebe
000001e0: d53f 5bbe 4454 48bf 33d2 bd3e 4b55 2bbf
000001f0: de7e 893e 3da3 95bf 4c0c 513d b530 00bf

fc4.weight f4 [1, 128]
-1.1565428 -2.1516736 -2.1989155 -3.0246964 -5.5634313 -1.184121 -1.1084702 1.3885916
-2.0927432 1.1698753 2.3225176 5.9728127 -1.5442302 -2.4057567 3.5883558 3.566522
-3.8370025 -1.646203 -1.9321824 1.4027452 -1.6948352 -1.9912926 -3.0257978 -1.2217671
1.3863332 -2.9378266 1.1662403 3.1888483 4.5813437 -2.307817 1.2332238 -1.912331
-1.7206731 1.9182923 -3.1918411 1.8231057 2.5249386 -4.925126 1.662165 -2.6009872
-1.4315069 1.5137396 1.7363415 -3.541395 -2.381705 1.8726101 -2.0021946 5.975066
-8.121733 -4.81375 4.5714984 1.4900223 -6.4798846 -9.327891 0.9786339 1.4200078
1.6843764 3.3720067 -3.8585138 -6.494337 1.5751582 -2.6248713 2.0963116 -3.2924616
-2.4154181 4.283806 -2.8371425 -0.90302634 -1.3813893 2.4282782 -1.950112 2.3720186
-3.1428947 -0.89527285 -1.5749736 1.8391107 -1.7091066 -5.8019385 -3.7177274 -1.3286729
2.7073548 1.473324 -1.1374056 -2.152221 -2.7879083 -9.182389 -1.0614375 0.97802293
-6.131664 1.1579875 0.9242954 -1.9508989 -1.7451246 -0.7867056 1.6910684 1.4316365
-2.3536346 -4.3873267 7.0986996 1.4661591 3.371757 2.8463693 -2.9550633 -2.143784
1.2269243 2.7254639 -1.1273566 -2.9495916 2.1603081 -5.8116746 -1.1517353 -2.4496384
2.424168 -2.6058629 -2.8155577 -3.1816776 -3.7930076 2.103153 1.8131181 2.6284616
-1.4731532 2.7871192 2.5688689 -2.354084 -1.7528259 -7.5268593 -1.1245484 -4.622251
00000000: 9809 94bf 05b5 09c0 08bb 0cc0 a094 41c0
00000010: a107 b2c0 4791 97bf 5ae2 8dbf 5fbd b13f
00000020: 81ef 05c0 79be 953f 21a4 1440 4821 bf40
00000030: 56a9 c5bf ebf7 19c0 9fa7 6540 e541 6440
00000040: 7391 75c0 c8b6 d2bf c151 f7bf 288d b33f
00000050: 5cf0 d8bf ade2 febf aca6 41c0 dd62 9cbf
00000060: 5e73 b13f 5a05 3cc0 5d47 953f 1716 4c40
00000070: 5e9a 9240 46b3 13c0 47da 9d3f 43c7 f4bf
00000080: 043f dcbf 9a8a f53f 2047 4cc0 875b e93f
00000090: 9898 2140 a29a 9dc0 d3c1 d43f 9376 26c0
000000a0: 9e3b b7bf 38c2 c13f 7040 de3f 37a6 62c0
000000b0: db6d 18c0 b0b1 ef3f f523 00c0 be33 bf40
000000c0: 9ef2 01c1 3d0a 9ac0 b749 9240 0db9 be3f
000000d0: 375b cfc0 0b3f 15c1 c087 7a3f d1c2 b53f
000000e0: a599 d73f f5ce 5740 e4f1 76c0 9cd1 cfc0
000000f0: c99e c93f e4fd 27c0 f829 0640 b1b7 52c0
00000100: 3696 1ac0 f014 8940 be93 35c0 bc2c 67bf
00000110: 5dd1 b0bf e968 1b40 459d f9bf 27cf 1740
00000120: 3025 49c0 9a30 65bf bc98 c9bf fb67 eb3f
00000130: 01c4 dabf 7ba9 b9c0 3fef 6dc0 f411 aabf
00000140: 4d45 2d40 e195 bc3f 8296 91bf fdbd 09c0
00000150: 176d 32c0 11eb 12c1 2fdd 87bf b65f 7a3f
00000160: 9736 c4c0 ef38 943f a09e 6c3f 0eb7 f9bf
00000170: 3e60 dfbf 8a65 49bf ee74 d83f dd3f b73f
00000180: f3a1 16c0 fb64 8cc0 8c28 e340 1aab bb3f
00000190: deca 5740 ea2a 3640 c21f 3dc0 c233 09c0
000001a0: db0b 9d3f 006e 2e40 394d 90bf 1cc6 3cc0
000001b0: 7d42 0a40 3df9 b9c0 106c 93bf e0c6 1cc0
000001c0: 9225 1b40 75c6 26c0 1932 34c0 9ba0 4bc0
000001d0: a3c0 72c0 0f9a 0640 4114 e83f b738 2840
000001e0: 4990 bcbf 2960 3240 5968 2440 50a9 16c0
000001f0: 995c e0bf 08dc f0c0 34f1 8fbf 7be9 93c0
