PPO/checkpoint_actor_ppo449.pth (torch_old, 88827 bytes, 8 tensors)

fc1.weight f4 [128, 33]
000000 88 20 5d 3d bb 37 dd 3d e2 d2 77 be 96 8c 52 bd
       0.053986102 0.10801645 -0.24201539 -0.051403604
000010 c3 81 da 3c 42 e4 65 3d c5 6c e2 bd 56 7c 3d 3e
       0.026673203 0.056125887 -0.110559024 0.18504462
000020 88 70 8e bd 11 42 31 be 52 df 6a bd 12 16 2a be
       -0.069550574 -0.17310359 -0.05734188 -0.16609982
000030 1a bd cd bd 01 44 45 be 46 6a a3 bd b9 e8 11 3e
       -0.10045834 -0.19264223 -0.079792544 0.14248933
000040 ba 35 1f 3e d7 18 5b bd b8 12 1c 3e 9b 7e a5 bd
       0.15547839 -0.053490486 0.15241516 -0.08080789
000050 1d 68 c3 3d a3 f1 a7 3e 5c f4 46 bc 19 97 a1 3d
       0.095413424 0.32801542 -0.012143221 0.07890148
000060 8f 73 8e bc ef 20 b0 3c 1a d9 1a 3e 64 c9 26 be
       -0.017389087 0.021500079 0.1512188 -0.16287762
000070 8c 8a bf bd 2c 83 34 bd 85 1e 88 bd 4e 03 1a 3e
       -0.093525976 -0.044070408 -0.06646446 0.15040323
000080 d2 fe 08 3c f4 17 ca bd ba ff b4 bd a6 f7 42 be
       0.008361535 -0.0986785 -0.088378385 -0.19039783
000090 00 4a aa be e8 66 ba 3c f3 69 99 3d 5f 76 36 3d
       -0.33259583 0.022754148 0.07490911 0.04454648
0000a0 60 cc b0 bd 08 06 dd be 68 68 da bd 04 8a 4d be
       -0.086327314 -0.43168664 -0.10664445 -0.2007218
0000b0 b6 29 ab bd a1 95 14 be 28 b4 ec 3d 0d 2b c1 3d
       -0.08357565 -0.14510204 0.115577996 0.094320394
0000c0 26 cd ac bd 49 04 21 be 94 55 e7 3d 5d a5 4e bd
       -0.084375665 -0.15724291 0.112956196 -0.05045067
0000d0 45 bd af 3d b9 8c d0 bd e9 e0 98 3e 5d a2 1d bc
       0.08581022 -0.10183091 0.29859093 -0.00962123
0000e0 19 97 5a bd 7e 36 81 bd 83 03 56 be 46 c7 14 be
       -0.053366754 -0.06309222 -0.20899777 -0.14529142
0000f0 82 fd b6 3d a3 0a 73 3d 22 2e d3 bd 3a 0d 2c 3d
       0.089350715 0.059336316 -0.103115335 0.0420048
000100 f0 b6 c3 3d 79 39 a9 3e 5f da aa bd 86 b8 91 3d
       0.09556377 0.3305166 -0.08342432 0.07115273
000110 86 26 65 bd 2a e7 4a 3e c0 fb 2a bd 32 71 f5 bd
       -0.055944942 0.19814745 -0.041743994 -0.11984481
000120 b0 f1 cd bd 2d 5d 1b 3e 9c a9 2d 3d f0 06 39 3e
       -0.10055864 0.15172262 0.04239808 0.18069053
000130 dd a2 b0 3c 19 e1 61 be bc 25 7c bd e1 2e 29 be
       0.021562034 -0.22058524 -0.061559424 -0.16521789
000140 0e 0e cc bc 31 e2 7a 3e 68 27 de bd 63 49 2c be
       -0.024909046 0.24500348 -0.1084736 -0.1682487
000150 10 86 f5 3d 1c c0 1e 3b 05 b7 5a bd 59 52 2d be
       0.11988461 0.0024223393 -0.053397197 -0.16925944
000160 11 eb bc bc c1 b2 12 bc 6b 68 9a 3d e8 ff a6 3d
       -0.023061307 -0.008953751 0.075394474 0.08154279
000170 8c 7b db 3d d1 b9 b3 3d c2 59 0f be 82 44 e7 bd
       0.10716924 0.08775676 -0.13999084 -0.11292364
000180 56 96 83 3d 8c 3c 15 3d d1 21 3e 3e 17 9c f7 bd
       0.06425159 0.036434695 0.18567587 -0.12090319
000190 cf 3e 6d 3e 84 48 17 3e 61 fd 92 be e2 65 a7 bc
       0.23168491 0.14773756 -0.28708938 -0.020434324
0001a0 c3 89 33 bd 7e 01 c8 3d 83 48 89 be 4b 76 32 be
       -0.04383255 0.097659096 -0.26813135 -0.17427938
0001b0 40 02 39 3e ec 2c d7 bd c3 04 8c be fe 50 59 3d
       0.18067265 -0.10506615 -0.27347383 0.053055756
0001c0 03 e6 5e bd 43 46 2d 3e 75 48 0b 3e 28 60 33 bb
       -0.054418575 0.16921334 0.13601859 -0.0027370546
0001d0 7e 49 97 be 2b 6f b2 3d 89 75 c7 bd e4 7b 60 3e
       -0.29548258 0.0871261 -0.09739215 0.2192226
0001e0 e8 45 0f be 12 58 8a bd 31 11 37 be 60 c8 4b 3e
       -0.13991511 -0.06755079 -0.17877652 0.19900656
0001f0 9f 67 4e be 35 83 87 bd 63 3d 32 bc e5 ea 11 be
       -0.20156716 -0.06616823 -0.010878894 -0.14249761
000200 5e 70 79 bd b4 95 33 be ac ab 17 bd 81 59 0f bd
       -0.060898177 -0.17537576 -0.037028953 -0.034997467
000210 44 49 60 bd fd 0f bd bd 60 d5 10 3e 1b 8b 86 3d
       -0.05475737 -0.09231565 0.14143896 0.06569501
000220 7c eb 37 3e 99 7f 93 3e ba 60 fe 3d e2 6c 2f bd
       0.17960924 0.28808287 0.12420793 -0.042828448
000230 ab 48 91 3d 26 17 22 3e 84 7d 00 3e c5 79 13 be
       0.070939384 0.15829143 0.1254788 -0.1440192
000240 5d 92 6b be 11 ba 98 bb c0 9c 16 3e 1e d8 b5 bc
       -0.23005052 -0.0046608527 0.14708233 -0.02219778
000250 5a fa 90 be 8a c7 00 be c6 69 ba bd 12 f4 81 be
       -0.28316003 -0.12576118 -0.09102206 -0.25381523
000260 04 c7 dd bd b6 32 e5 3d 06 3c 92 3e f2 00 85 be
       -0.10828975 0.11191313 0.2856142 -0.25977284
000270 06 e6 92 3d a6 0c 59 be 90 df 92 bd 25 27 76 bd
       0.0717278 -0.21196231 -0.071715474 -0.060095925
000280 86 ea 54 bd 28 ff 0b bd 7a b2 2a be 9e e9 19 be
       -0.05198147 -0.034178883 -0.16669646 -0.15030524
000290 f1 5f 06 3f 26 31 ec bd eb 37 e2 bc 95 01 80 3e
       0.52490145 -0.11532812 -0.027614554 0.25001207
0002a0 8f e1 4e be 15 46 dd bd 0d fe 78 3e b8 4e 88 bd
       -0.20203231 -0.10804383 0.24315663 -0.066556394
0002b0 13 9d 04 3e e2 10 42 3e 3c 30 f6 bd 4d 6e 5b 3e
       0.12950544 0.18951753 -0.12020919 0.21428795
0002c0 7c 63 d6 3c 90 29 38 bd b3 bb 8c 3d c1 4d 10 be
       0.026170485 -0.044961512 0.06871738 -0.14092161
0002d0 f4 f9 8e b9 91 79 6e 3c 22 c2 eb 3d 9b 56 d5 3d
       -0.0002727058 0.014555351 0.11511637 0.10416909
0002e0 9e de e7 3d 51 2b aa 3d 92 55 00 be a0 48 71 bb
       0.11321758 0.08309043 -0.12532642 -0.003681697
0002f0 85 a1 b1 bd b6 30 a7 3c f8 48 e6 3d be c3 cf 3c
       -0.086733855 0.02040897 0.112443864 0.025361892
000300 37 59 8e bd 9f 6c 8f bd 1a 51 fb bd b4 b0 18 be
       -0.0695061 -0.0700314 -0.12271328 -0.14911157
000310 af bd cf bd 0c 3e f5 3e d0 3d fa bd 28 70 00 3d
       -0.10143601 0.478989 -0.12218821 0.03135696
000320 85 69 59 3d d0 89 41 3c 4e 83 1e be 93 f2 9d bd
       0.053079147 0.011812642 -0.15479776 -0.07712283
000330 c0 53 b9 bd 6b 4c 1c 3e 29 85 45 be 38 66 21 3e
       -0.09049177 0.15263526 -0.19289078 0.1576165
000340 c6 ef 10 3e b2 77 9c 3d f1 e1 e3 3c 69 04 ff bc
       0.14153966 0.076400176 0.027817698 -0.031130033
000350 3d e5 19 3e 27 0a 72 bc 3a 71 9d 3c 68 00 48 3e
       0.15028854 -0.014772928 0.01921903 0.19531405
000360 b6 2c ca bc 54 f6 42 be 1f e3 9f 3d 67 65 af be
       -0.024679523 -0.19039279 0.07806992 -0.3425705
000370 4a 00 ed bd 4f 43 27 3e 6a 9a d9 3d 6f 2c 55 bd
       -0.11572321 0.1633427 0.10625155 -0.05204433
000380 ae 7f 01 be 53 21 4c 3e bb 03 c5 bd c8 66 4a bd
       -0.12646362 0.19934587 -0.09619852 -0.049414426
000390 36 a2 2f be e0 2d d3 bc bb 56 2f bd 40 ee 75 3e
       -0.17151722 -0.02577871 -0.042807322 0.24016666
0003a0 df e2 1a 3e 0a 77 3a 3e 4d 62 27 3e fc 6c 2a be
       0.15125607 0.18209472 0.16346093 -0.16643137
0003b0 85 a1 27 3d 0c c3 db 3d 14 67 db bc 1a ab 83 3d
       0.04092552 0.107305616 -0.02678255 0.064291194
0003c0 2f 25 a8 3d 36 32 5e 3d 4d 26 80 3c 28 f0 67 bd
       0.08210217 0.054247104 0.015643263 -0.056625515
0003d0 70 5b bb bc 09 10 bc be 2a c3 b5 3d 74 56 c7 bd
       -0.02287075 -0.36730984 0.08875115 -0.097332865
0003e0 9a 9e 4e 3d d2 20 3a 3c 33 5a 4e 3c da 0c 9b bd
       0.050444223 0.011360364 0.012594747 -0.075708106
0003f0 62 44 57 3e 94 63 6a bd 2b fc 70 bd 5e 1f ed bd
       0.2102218 -0.05722387 -0.058834236 -0.115782484

fc1.bias f4 [128]
000000 73 1a a0 3d 7f f8 02 3e ee e4 12 3e a1 f6 ef 3d
       0.07817545 0.12790106 0.14345142 0.117169626
000010 62 ca d9 bd b3 62 5c bc 2c c1 63 be 0f bb e3 bd
       -0.106343046 -0.013451266 -0.22241658 -0.11119663
000020 0e ad f4 3d f7 03 4f bc b0 d9 94 be 3a 1c ae bd
       0.1194707 -0.012635223 -0.29072332 -0.085014775
000030 8a 4f 49 be 32 7e 9f 3d 6e e4 e1 bd 96 7a 26 be
       -0.19659248 0.07787742 -0.11029898 -0.162577
000040 cb 54 24 bd 3b 4b e4 3d 9c 6c 7f bd 7c a0 bd 3d
       -0.040119927 0.111471616 -0.062359437 0.092591256
000050 42 a5 8a bd ef 13 96 3d 1b c0 0e be 8e 11 38 3c
       -0.06769802 0.07328021 -0.1394047 0.011234654
000060 08 93 9d 3d fe b3 eb 3d fc 0b d8 3d fa 3a ea bd
       0.076940596 0.1150894 0.10549161 -0.1143703
000070 13 80 8d be da 02 1a be ff 53 a0 bd ad c7 b7 3a
       -0.27636775 -0.1504015 -0.07828521 0.00140213
000080 cf c1 3e 3e 8f ee b2 3d c3 a7 c1 3d 4d cc 13 3d
       0.1862862 0.08736908 0.09455826 0.03608351
000090 3a df 16 be 77 36 82 be b7 a6 14 3e 76 a0 13 3e
       -0.14733592 -0.25432178 0.14516722 0.1441668
0000a0 51 89 c4 bd c4 cd 0a bd 0a f3 d1 bd 5e 08 48 3a
       -0.095965035 -0.03388764 -0.10251434 0.00076306413
0000b0 5b 1d bb bd b5 d8 dc bb 5e aa 1d bc 0d 8f 08 3d
       -0.091364585 -0.0067397007 -0.009623138 0.03333955
0000c0 fc ab 27 be 20 f3 2c 3d 71 8c 24 be 95 de 68 bd
       -0.163742 0.04222405 -0.16069199 -0.056852896
0000d0 c1 80 29 be 37 f6 5d be 44 13 e2 3d 4e f2 15 be
       -0.16553022 -0.21675955 0.11038831 -0.14643213
0000e0 f8 e1 b7 bd d2 59 b3 bc 59 b7 26 be 06 4b c3 bc
       -0.08978647 -0.021893416 -0.16280879 -0.023839485
0000f0 7b 11 87 3d b3 d0 a3 bd c6 36 9f 3d 68 08 96 bd
       0.06595131 -0.079987906 0.07774119 -0.07325822
000100 01 15 18 be fb 7b 9c bb 48 ff aa 3d 1a d9 c7 bd
       -0.14851762 -0.004775522 0.08349472 -0.09758206
000110 b3 c5 c2 bd a8 f5 53 3d 77 f6 71 3b 0c 20 8a 3d
       -0.095103644 0.051747948 0.0036920586 0.06744394
000120 9c dd 76 be 55 91 11 3e 8c 2c 11 3d 9a 72 bc 3c
       -0.24107975 0.14215596 0.035442874 0.023003865
000130 88 f1 04 bd 09 24 ec bd fc 83 e7 bd 4f 90 2d 3b
       -0.032456905 -0.11530311 -0.11304471 0.002648372
000140 8d 69 be 3c 21 b8 90 bd 78 e7 1f 3d 94 91 8d bd
       0.02324369 -0.0706637 0.039039105 -0.069125324
000150 ba ba b5 3d 91 f3 78 be a6 b9 9b bd 69 31 93 3d
       0.08873506 -0.24311663 -0.07603769 0.071871586
000160 a5 aa 0e be cb e4 a4 3d 4a a6 0a 3c 68 0d 61 3d
       -0.13932283 0.08051451 0.008462498 0.054944426
000170 57 b9 15 3c fb d9 19 3d ce 4e fc bd 8f 1f 5a 3d
       0.009138427 0.037561398 -0.12319718 0.053252753
000180 78 2c 19 bd a7 8f f3 3d c0 f7 c3 bc c6 da be 3c
       -0.037395924 0.11892634 -0.023921847 0.023297679
000190 1c 52 6a bb 9d 8f ad 3d a5 42 24 3e f2 60 09 be
       -0.0035754507 0.08474658 0.16041048 -0.13415888
0001a0 a8 93 06 bd fb 4a 21 be cb 03 0b 3d 7d fc 73 3d
       -0.03285566 -0.15751259 0.033939164 0.059566963
0001b0 41 cd 67 bd 77 b6 0d bd a4 f4 10 3e c4 cd 15 3e
       -0.05659223 -0.03459784 0.14155823 0.14629275
0001c0 84 31 e5 bd a6 ad 1b 3e 81 a0 d5 bc 79 c6 06 be
       -0.11191085 0.1520296 -0.02607751 -0.13161649
0001d0 82 af 0f bc 03 41 0c 3e bf dd b0 3d 23 19 3a be
       -0.008769872 0.13696675 0.08636045 -0.18173651
0001e0 62 dd 06 be 5b 25 2b be 5e e4 42 3d d5 13 3f be
       -0.13170388 -0.16713469 0.04758107 -0.18659909
0001f0 da b4 21 bd 93 9f 9f bd 4f fc ae 3d 88 2c db 3d
       -0.039479114 -0.07794108 0.08544218 0.10701853

fc2.weight f4 [128, 128]
000000 4c d2 11 be c7 2d 14 bd 21 aa c6 3d 12 0a be bd
       -0.14240378 -0.03617647 0.09700418 -0.092792645
000010 7b 8f 23 bd 52 e5 8a 3b 51 75 9e bd 94 c8 90 bd
       -0.039931756 0.004238763 -0.0773722 -0.07069507
000020 57 9b 61 3d c7 7a 53 3d 5c d5 76 bd 69 80 05 be
       0.055079784 0.05163076 -0.06026207 -0.13037266
000030 7d c7 8d 3d f7 a5 41 3d c0 6c 73 3c 65 8f 99 3d
       0.06922815 0.047277417 0.014857471 0.074980535
000040 c7 c1 88 bb bd e1 2b be f1 24 e6 3a a7 0e e0 3d
       -0.0041734907 -0.16785331 0.0017558617 0.10940295
000050 bc b4 cf 3d 87 22 08 be 5d a1 c9 bd 55 a8 06 bd
       0.10141894 -0.13294421 -0.09845231 -0.032875378
000060 bc a7 0f be ab 2b a3 3e 98 cf e3 3c 0e 87 a4 bc
       -0.1402883 0.31869254 0.02780895 -0.02008393
000070 5e a9 89 3d 46 22 da 3d d2 f8 34 3d 0a a4 01 be
       0.06721757 0.106510684 0.044182606 -0.12660232
000080 9b 3b 00 3e 31 ce 1f be 84 5f 15 be 32 ef a7 bd
       0.12522738 -0.15606 -0.14587218 -0.0819992
000090 10 b7 ab bb fb ad cf bd 5e e6 af bc 80 43 10 3d
       -0.0052403286 -0.10140606 -0.021472152 0.035220623
0000a0 fb ec 6d be d8 0d a5 bd 08 1d 07 3e 09 40 41 bd
       -0.23234932 -0.08059281 0.13194668 -0.04718021
0000b0 d7 c8 ea bc 0d 93 88 bd fe 47 0b be 34 78 84 bd
       -0.028660221 -0.06668673 -0.13601682 -0.064682394
0000c0 da a1 90 3d a5 67 c4 bc 8a f5 8a 3c b9 bd 83 3d
       0.07062121 -0.023975203 0.016962785 0.06432671
0000d0 73 51 be 3d 24 90 b5 3d b4 c9 ad bd 57 58 61 3d
       0.09292879 0.08865383 -0.084857374 0.055015888
0000e0 60 3b b6 3d fb b2 2c bd 29 8a 1b 3d 37 de c6 3d
       0.08898044 -0.042162877 0.037973557 0.09710353
0000f0 5d f6 c0 3c ad 20 34 be b3 ca 87 bd b8 35 ab 3d
       0.023554975 -0.1759059 -0.06630459 0.083598554
000100 c0 95 12 bd d0 41 35 3e 06 1d c7 bb 7c 2a 3e bd
       -0.035787344 0.17700887 -0.006076458 -0.046427235
000110 1c 5f 55 bd 77 7d 2c be a1 ef 00 be df 40 6e bd
       -0.052092656 -0.16844736 -0.12591411 -0.058167335
000120 2b 6a 54 3d 45 8b 5b bd c0 e8 c9 bc ce 30 d6 3c
       0.051859062 -0.053599615 -0.024647117 0.026146319
000130 81 ad fc bc d6 de 8e be eb 40 05 3e 86 bd c9 3d
       -0.030844452 -0.27904385 0.13013045 0.09850602
000140 18 99 83 3b 22 b5 7b bd e6 7d 8b 3d 29 45 93 bd
       0.004016053 -0.06145204 0.068111226 -0.07190926
000150 2f cd 05 3c 13 27 2e be 19 f0 9b 39 f1 20 e4 3c
       0.008166595 -0.17007093 0.0002974279 0.027847739
000160 03 da 9c 3d 67 0b bc 3b a9 c7 cb 3c 0a c0 b9 bb
       0.0765877 0.005738664 0.024875479 -0.005668645
000170 c5 aa 8c 3c ac 66 1e bd e3 fe 7a be c8 9e 21 3d
       0.017171273 -0.038672134 -0.24511294 0.039458066
000180 b7 15 c6 bc 80 b1 61 bd 04 ce 52 3d 59 b6 78 3c
       -0.024180276 -0.055100918 0.051466003 0.015180194
000190 af 11 e2 3c 15 f6 9b bd cc 43 8c 3d 61 66 11 3e
       0.027596323 -0.07615296 0.06848869 0.1419921
0001a0 25 91 a9 3c f5 90 2c bc 9e f7 bf 3c 4a dd 80 3d
       0.020699093 -0.010532607 0.023433503 0.062922075
0001b0 90 ba 4d bd 74 9c 4c bc 78 f2 86 3d 69 39 43 bd
       -0.050226748 -0.012488473 0.06589216 -0.047662172
0001c0 5b 8a 83 bd 96 d5 1e 3e e8 7a 54 39 d6 fe 05 be
       -0.064228736 0.15511164 0.00020263682 -0.13085493
0001d0 4d a5 bd 3d 4f d8 03 3e c9 72 c2 bc 71 23 14 be
       0.09260044 0.12875484 -0.023736374 -0.14466645
0001e0 9f 76 db bd a3 7b 03 3c 07 5a 9c 3d 0e c4 a5 bd
       -0.107159846 0.008025083 0.07634359 -0.08094035
0001f0 59 b1 a2 3b fe cf 9c bd 50 9c c8 3b d8 a1 25 3c
       0.004964989 -0.07656859 0.0061221495 0.010109387
000200 00 0f 60 bb 53 a8 39 be c1 c3 a3 bd 37 4f 8d be
       -0.0034188628 -0.18130617 -0.079963215 -0.275995
000210 ec 34 db bc a0 12 61 3d 21 fc d2 bb ee 5c ed bc
       -0.026758634 0.054949403 -0.0064387475 -0.028974976
000220 ad 61 01 3d 8f 71 5c 3b 5d 95 bc 3d 9d be 7b 3d
       0.03158729 0.0033637022 0.09208176 0.06146108
000230 d1 e3 95 3d a2 b5 eb 3d 30 78 37 3d d3 2c ad bd
       0.07318843 0.11509253 0.044792354 -0.08455815
000240 2d 0c 25 bd 51 08 00 bd 78 08 f3 3d 00 30 b3 bd
       -0.040294815 -0.03125793 0.1186685 -0.0874939
000250 e4 15 cb bc 11 c0 bd bc 0e 84 98 3d 26 e6 16 3c
       -0.024790712 -0.023162873 0.074470624 0.009210145
000260 36 32 b5 3d b0 bd b7 bd e1 f0 bf 3d 3b ba dd 3d
       0.088474676 -0.08971727 0.09372116 0.10826536
000270 c7 72 43 be 94 bf 89 bd 6a 88 25 3e 30 d7 93 3d
       -0.19086753 -0.06725994 0.16165319 0.07218778
000280 a9 77 fb 3c 34 22 fa bd 7c a9 0c 3d c5 6e de 3c
       0.030696707 -0.12213555 0.03434132 0.027152428
000290 0f 57 01 bd 3c dc 94 3d bb 93 8d bd 86 c3 d7 39
       -0.031577166 0.07268569 -0.06912943 0.00041153672
0002a0 f1 fd cb bc ec 01 38 3c 62 90 c7 3d 3f c1 26 3d
       -0.024901362 0.011230927 0.09744336 0.040711638
0002b0 0f 91 e8 bb 7a 1e 98 bc ed 2a 5a be 2e f5 33 bd
       -0.0070973705 -0.01856922 -0.21305437 -0.043934993
0002c0 26 f0 1a be 7d 37 c2 3d 5a 53 bb bd 84 15 ac 3c
       -0.15130672 0.0948324 -0.091467574 0.021006353
0002d0 8a 38 d0 bd ee d3 59 3d 1b 69 ef 3c e5 a0 01 bb
       -0.10167034 0.053180628 0.029224923 -0.0019779739
0002e0 92 82 2d bc 91 bb 5c bd c3 74 c3 3d 14 c0 7c 3d
       -0.010590212 -0.053889815 0.09543755 0.061706617
0002f0 db af 90 bd 7c a7 85 bd da df 12 3d a0 d5 87 3d
       -0.07064792 -0.06526086 0.035858013 0.066325426
000300 e7 e9 af bd 36 30 db ba 13 72 fa bd ed 9f 08 bd
       -0.08589535 -0.0016722742 -0.12228789 -0.033355642
000310 96 cf 03 bd e4 5f de 3a 35 06 40 3d c5 8d e4 3c
       -0.03218039 0.0016965833 0.04688092 0.027899632
000320 da 6b 0f 3d b7 0f 1b bd 17 2e 1f 3d af c0 fc bd
       0.035014965 -0.037856784 0.038862314 -0.12341439
000330 5c 8d 50 bd 13 e9 db bd 95 e2 97 bb d4 81 19 be
       -0.05091606 -0.10737815 -0.004635165 -0.14990932
000340 7a 5a 30 3b 86 16 19 bc f1 10 59 3d 78 4d 03 3d
       0.0026909397 -0.009343749 0.052994672 0.0320563
000350 da 6f 2b be e2 bc 2f be 97 29 e7 3c 2c 20 bb 3d
       -0.16741887 -0.17161897 0.028218074 0.09136996
000360 e9 7e 5e bc c7 e2 a1 bd 8d a8 60 bd 83 3b 0c 3c
       -0.013580062 -0.079045825 -0.054848243 0.008559111
000370 a4 26 70 3d be b9 60 bd b2 e3 e4 3c c0 54 79 3c
       0.0586306 -0.054864638 0.027940605 0.01521796
000380 64 f1 7b 3c 58 0b 1f be a7 82 ac 3d b5 45 69 3d
       0.015377376 -0.15531671 0.084233575 0.056951243
000390 0e b0 f8 3c 67 56 f6 bd 41 d0 be bd c6 a5 b3 bd
       0.030357387 -0.12028199 -0.09317065 -0.08771853
0003a0 dd 95 a6 3c bd f2 e1 bc c3 bc 33 3d 6a b5 58 3d
       0.020335132 -0.027581567 0.04388119 0.052907385
0003b0 c5 c0 51 bd 72 69 7f 3d 9d ea ca 3d 32 b5 ff 3c
       -0.05120923 0.06235642 0.0990803 0.03121433
0003c0 21 ae 9b bd 9a 9e 89 3d b5 11 28 3d 83 e6 2f 3d
       -0.07601572 0.06719704 0.04103251 0.042944442
0003d0 61 bf 77 bd 4f b5 5e 3c 23 8e 52 3d 0d a1 0f be
       -0.060485248 0.013593032 0.051405083 -0.1402628
0003e0 9d c1 a7 3d 12 3b 3c 3a 17 5c 5a 3c c3 1c 17 3d
       0.08191226 0.0007180433 0.01332762 0.036892664
0003f0 8c 32 d4 3c 74 3b 6e 3c 6c 76 46 bd 30 bd a1 3d
       0.025903009 0.014540542 -0.04845278 0.07897413

fc2.bias f4 [128]
000000 6c be 53 bd e3 85 93 3d 62 66 ad 3d f2 c5 83 bc
       -0.051695272 0.07203271 0.084667936 -0.016085599
000010 3e ae 73 3b 15 ed ea 3a c3 0f 64 3d fe 8f cc bc
       0.0037182714 0.0017923439 0.055679094 -0.024971005
000020 81 d2 7b bd bc 59 77 3c ef d3 14 bb ab 92 7f 3d
       -0.06148005 0.015097078 -0.002270933 0.062395733
000030 87 5e 61 bc d9 e7 bd bd b2 de e0 bc 22 ab 8f 3b
       -0.013755447 -0.09272737 -0.02744994 0.0043844143
000040 f6 9e 19 3d 94 91 dc bc 9b 4b 1a 3b 0f 91 2a 3d
       0.037505113 -0.026924886 0.00235436 0.041642245
000050 59 b5 82 bd 16 bb 67 bc 54 c2 42 bd 4b b3 b3 bd
       -0.063822456 -0.014143726 -0.047548607 -0.08774432
000060 59 c5 9f 3d 91 7a 02 3d 63 0b df 3d ae 89 ac 3c
       0.07801313 0.03185517 0.10890844 0.021061745
000070 21 1f e9 bd b2 fb 80 3d 03 00 b9 3d c4 11 ac bd
       -0.113828905 0.06298007 0.09033205 -0.08401826
000080 f6 99 f7 bc 5b 06 b8 3c b2 dc fe 3b fe 84 b4 bb
       -0.030224781 0.022463968 0.007777774 -0.005509018
000090 c2 71 e1 bc 5d 43 1c 3d 66 39 3e 3d 8c 3c 55 3c
       -0.027520064 0.03815018 0.04644146 0.013014924
0000a0 53 6c a8 3a f8 a0 39 3b c6 d4 90 3d a6 d3 c6 bc
       0.0012849666 0.0028324705 0.07071833 -0.024270844
0000b0 e8 04 86 3c 69 e3 89 bd 45 d5 43 3d 03 53 41 3d
       0.016359761 -0.06732828 0.04781081 0.047198307
0000c0 0a ad cc 3d 02 fa 06 3e df 01 5e 3d 39 d0 f0 3d
       0.09993942 0.13181308 0.054201003 0.11758465
0000d0 51 5b c7 3d a1 96 30 bd f0 d8 7f 39 7d d5 91 bd
       0.09734214 -0.0431124 0.0002439951 -0.07120798
0000e0 28 c8 9f 3d 6d 51 18 3d f1 af eb bc 6b ca 15 bd
       0.07801849 0.03718703 -0.028770419 -0.036569994
0000f0 91 9b b6 3d 84 e2 a6 3c 34 25 71 bc 07 ec 42 3d
       0.08916391 0.020371683 -0.014718343 0.047588374
000100 e0 0a b0 bd 86 4b a5 bd b4 cf 21 bd ab 53 c2 bd
       -0.08595824 -0.080710456 -0.03950472 -0.09488615
000110 ae 77 c1 bd 15 9f b7 bc 24 05 82 3d 6d 3e b1 bc
       -0.09446655 -0.022414723 0.06348637 -0.021636212
000120 25 f4 aa bc df ca e4 3c 2f 30 7d 3d d6 70 2a 3d
       -0.02086837 0.027928768 0.06181353 0.041611515
000130 15 a9 bb bd d3 c0 ae 3d 80 db d2 bd 19 ae e4 3d
       -0.09163109 0.08532872 -0.102957726 0.11166019
000140 c3 65 f7 bc d9 2a 06 bc d2 99 46 3c 5e 8d 3b 3d
       -0.030199891 -0.008188927 0.012121635 0.045789115
000150 31 27 63 bd 9f a5 17 bd 01 9d 65 3d 69 f8 39 bc
       -0.055457298 -0.037023183 0.056057934 -0.0113507295
000160 46 71 60 3d d3 72 0e 3d 76 4c 48 39 b1 c1 80 bc
       0.054795526 0.034777474 0.0001910197 -0.01571736
000170 cc 13 85 3b 73 62 93 3d 79 ed b9 bd be 2e c6 bc
       0.004061198 0.07196512 -0.090784974 -0.02419221
000180 26 70 c0 bd ca a9 1c bd 6a 63 7e bd 62 9c b1 3c
       -0.093963906 -0.03824786 -0.062106527 0.021681014
000190 ae 74 8b 3d 6a 44 db 3c 65 af 48 3d 64 0c 5f 3d
       0.06809364 0.02676602 0.048995394 0.054455176
0001a0 4c 33 a5 3c 06 78 6d 3d 5e d5 f7 bc 3f 61 31 3c
       0.020166062 0.05797579 -0.030253109 0.010826408
0001b0 8d 02 bc 3b 39 bd 69 3b f8 0e 02 bd af d7 c3 3d
       0.0057376088 0.0035665764 -0.031752557 0.09562623
0001c0 28 48 71 bc d3 e3 50 3d d6 44 ce bc 46 58 c8 3d
       -0.014726676 0.05099852 -0.025179308 0.09782462
0001d0 a7 43 28 bd 0e 6a b0 bd 06 02 37 3d 84 d5 ad bd
       -0.041080143 -0.08613978 0.044679664 -0.084879905
0001e0 8e 9f dc 3d c5 da 13 3d ba d8 57 3d f9 63 d5 3d
       0.1077262 0.036097307 0.05269692 0.10419459
0001f0 d8 8f c3 3d 94 ee cd bd d4 86 02 3b 53 59 39 3d
       0.095489204 -0.10055271 0.001991679 0.0452512

mu_head.weight f4 [4, 128]
000000 61 b5 d8 bc fb 79 94 bd 92 dc e5 bc c2 b3 ca bd
       -0.026453676 -0.072498284 -0.028059278 -0.09897567
000010 e3 f3 1f bd 6a b3 dd bd ee 66 86 3d 36 61 5c 3d
       -0.039050948 -0.10825236 0.06562601 0.053803645
000020 29 40 96 bd c4 ef 6e bd f4 68 04 3d f1 7d 82 3d
       -0.07336456 -0.058334127 0.032326654 0.06371678
000030 fc fd 1b bd d2 6e ba 3d 8b c0 d6 3d 73 6d 90 3d
       -0.038084015 0.091031685 0.104859434 0.07052126
000040 65 00 75 bd 18 bd a9 bd 86 7b a4 3d f6 48 5c bd
       -0.05981483 -0.0828802 0.08031373 -0.05378052
000050 52 ee 17 3e 7e df 87 3d be fb 78 bd b8 9d 6e 3d
       0.14837006 0.066344246 -0.060786955 0.05825588
000060 41 38 dd bd 4f 13 ee 3d 59 2a 6a bd d4 83 c8 3c
       -0.10801745 0.116247766 -0.057169292 0.024476923
000070 6a c1 2f 3d 0b 55 9a 3d a3 86 d7 bc 9e 22 c8 bd
       0.042909063 0.07535752 -0.026309317 -0.09772228
000080 5c d9 49 bd c5 cc 15 3d 77 53 ee 3b d8 b8 a7 3d
       -0.049279556 0.036572237 0.0072731334 0.08189553
000090 ec 4b 3c 3b 36 99 11 be c2 61 d7 3d 9e 6a 95 bd
       0.0028731776 -0.14218602 0.10516693 -0.07295726
0000a0 6c 52 8f 3c ae 89 35 bd 7f 34 c9 bd 67 a9 a9 3d
       0.017495357 -0.044320755 -0.09824466 0.08284264
0000b0 50 35 0c 3c e2 98 2f be 6a f2 7e 3e 6f b2 b1 3d
       0.008557633 -0.17148164 0.24897161 0.08676612
0000c0 a0 ad 54 bd 9b b4 b2 3c ab 31 a3 3c 57 27 00 bd
       -0.051923394 0.021814635 0.019921144 -0.031287517
0000d0 5b a7 44 bd f0 67 8a bd 76 ee fe bd b8 e0 32 3e
       -0.048011165 -0.06758106 -0.124478266 0.17468536
0000e0 9a 8e c9 bc 8b 89 80 bd 49 a8 1e 3d d5 d4 5f 3d
       -0.02460413 -0.06276234 0.038734708 0.05464633
0000f0 9d 59 87 bc d5 89 eb bc a2 5e c5 bc a9 26 79 3d
       -0.016522223 -0.028752247 -0.024092976 0.060827885
000100 70 77 af 3c e1 98 9e 3d 7e a8 c3 bc e3 60 a9 bd
       0.021419257 0.07744003 -0.023884054 -0.08270433
000110 9e 56 6d 3d af 27 ac 3c a3 f9 11 3d 9f 88 7f 3a
       0.057943933 0.021015016 0.035638463 0.0009747836
000120 99 a4 f8 3c 0c 2d 71 bc b9 fc 4e 3c 93 1f 9d 3d
       0.030351924 -0.014720213 0.012633496 0.07672038
000130 dd 5f ae 3d 9f 6c 80 bc 73 46 01 3d df 8c a6 3c
       0.08514378 -0.015676795 0.031561326 0.020330844
000140 97 e5 1f bd 74 9f 1c 3e 8d 14 9d 3c 1a 0f 17 3d
       -0.039037313 0.15295202 0.019174838 0.036879636
000150 e7 b0 8a bc 13 83 80 bb 9a 3c 03 be 6f ff e7 3d
       -0.016930057 -0.0039218753 -0.12816086 0.11328017
000160 4e 10 30 3b ca 25 03 bd 32 e2 00 be 60 48 da bb
       0.0026865187 -0.03201846 -0.12586287 -0.00666146
000170 08 3a ea 3c 0d ab 6b bd 0d cf 3d 3e 1a a4 70 bd
       0.028592125 -0.057536174 0.18536015 -0.05875025
000180 7e a9 ea bb 09 e0 0b 3e 21 e5 f9 bd a0 c7 09 3e
       -0.0071613183 0.13659681 -0.12201906 0.13455057
000190 7c 7a b5 3c 11 2d ba 3c 87 87 75 bd 12 96 89 bd
       0.022153132 0.022726567 -0.059943702 -0.06718077
0001a0 97 74 e6 3c b7 95 59 bd f0 fc f1 3d c9 10 01 3d
       0.028131766 -0.053121295 0.11815822 0.03151015
0001b0 78 80 2f be fc 00 d1 3d 95 96 32 3d 5c fc 90 3d
       -0.1713885 0.10205266 0.043600637 0.07079384
0001c0 33 57 19 bd 23 9d d4 3d 9d 77 a0 bc 33 57 84 bd
       -0.037436675 0.10381534 -0.019588286 -0.064619444
0001d0 16 9a 84 bc 74 10 a8 bd 67 6b 1c bd 86 63 5d 3d
       -0.016186755 -0.08206263 -0.038188364 0.05404999
0001e0 e1 86 23 be 9f 23 ee 3c b7 24 7f bc 8c af 9c bc
       -0.15969421 0.02906972 -0.015572718 -0.019126676
0001f0 a2 61 e6 bd 8b 94 c6 3d 9f 6d 91 3d fb 87 92 3d
       -0.11249091 0.09696301 0.07100987 0.071548425
000200 5e c6 84 bd 8d cc 05 3c e1 c5 7e bd 90 f3 33 bd
       -0.06483148 0.0081664445 -0.06220043 -0.04393345
000210 a5 9d c2 bc 7f 4f ab 39 67 62 83 3c 7d 90 2d bd
       -0.023756811 0.0003267489 0.016038133 -0.042374123
000220 66 91 dd bd 03 5b c6 3d 3a e3 d6 3c ad 35 09 bd
       -0.10818748 0.09685328 0.026231397 -0.033498455
000230 b3 21 a4 3d 18 0f 33 bc 23 80 a0 3d 7f 4c b6 3c
       0.0801424 -0.010928892 0.0783694 0.022253273
000240 14 2b 92 bd 62 b5 0d 3e f4 18 a6 3d 51 bc cc bc
       -0.07137123 0.13838723 0.08110228 -0.02499214
000250 80 ef 9d 3c 05 c6 4d bd 05 6c 80 3d 28 c5 db bc
       0.019279242 -0.050237674 0.06270603 -0.02682741
000260 b2 10 f9 bd e3 ac b7 3d fc 12 b5 3c 8e 84 a7 bd
       -0.121613875 0.089685224 0.022103779 -0.0817958
000270 27 e6 a8 3d 26 d7 a2 bc 05 b0 6f 3d 2b 35 6f bd
       0.08247023 -0.019877981 0.058517475 -0.058400314
000280 c1 99 69 bd 17 2b 06 bd 42 77 8e 3d 0f 3f a5 3c
       -0.057031397 -0.032755937 0.069563404 0.02017167
000290 ad f2 a5 3d 8c fa cf 3d 2b 04 ee bd 98 df d6 3d
       0.08102927 0.1015521 -0.11621889 0.10491866
0002a0 32 a0 95 bc ed 5e bf 3c 07 30 20 be df 3d cb 3d
       -0.018264864 0.023360694 -0.15643321 0.0992391
0002b0 7a ce 8c 3c 64 45 8a 3d 92 d2 1c 3e 37 65 23 3d
       0.0171883 0.067515165 0.15314701 0.039891448
0002c0 2c 4d a5 bd 2a 38 6e 3c 02 c1 74 3c 24 fb de bc
       -0.0807136 0.014539758 0.014938595 -0.027219363
0002d0 f5 b5 a1 3c c9 bd 94 bd a8 c9 72 3d 5b 6e a0 bd
       0.019740084 -0.07262761 0.059274346 -0.07833549
0002e0 9a bb 1d be 8d a9 6d 3d f7 80 bb 3d a5 3a 76 3d
       -0.15403596 0.058023024 0.091554575 0.06011452
0002f0 6f 83 8a bd 1d 25 9c 3d 50 52 47 3d 4a 59 87 3d
       -0.0676335 0.07624266 0.048662484 0.066088274
000300 d9 97 d0 bd b9 34 91 bc b3 a9 a1 bd 87 57 2c 3d
       -0.10185213 -0.017725335 -0.07893696 0.04207566
000310 7d 7f 74 be 15 8b a7 3d d1 37 0d 3d 96 a3 3f 3d
       -0.23876758 0.08180825 0.03447706 0.046786867
000320 b7 89 55 3c 4d 0c c5 bd b5 8c 81 3d b3 d3 04 be
       0.013033322 -0.09621487 0.06325666 -0.12971382
000330 d8 62 74 bc b0 77 73 3d 62 62 4f bd 67 3c 9e bc
       -0.014916144 0.059440315 -0.050630935 -0.019315911
000340 5f a2 a0 bd 12 5d a8 3d 9a 2a 3e be c5 d6 9a bd
       -0.0784347 0.08220877 -0.18570939 -0.07560495
000350 7c a6 ad 3d fb b1 8b bd 62 ce e9 bd 81 65 4c 3d
       0.0847902 -0.068210565 -0.114163175 0.04990149
000360 db e1 e2 bd 81 a0 25 3e bc a4 b5 3c cc c6 9c 3c
       -0.11078235 0.16174509 0.022173278 0.019137762
000370 8e c8 a1 bc a6 c5 88 3d bf 25 43 bd 22 75 21 bd
       -0.019748952 0.066783234 -0.04764342 -0.039418347
000380 e9 77 b5 bd 32 ef 95 3d 34 9e 6d 3d a7 df ea 3d
       -0.08860762 0.073210135 0.058012202 0.114684395
000390 00 2b 74 3d 27 c0 06 3c 96 b8 36 3d c8 a9 ef 3b
       0.05961132 0.008224524 0.04460963 0.0073139407
0003a0 90 1d 2e bd 28 b2 59 bd b3 5f 62 3d 9d c5 55 3d
       -0.04250866 -0.05314842 0.055267047 0.05219041
0003b0 26 f7 ef 3d 23 70 99 3d b3 fc af bc 8c 24 23 3d
       0.11717062 0.074920915 -0.021482801 0.039829776
0003c0 4a 06 d5 bc e7 c7 2f 3d 65 a9 d1 bc ce d7 c5 bc
       -0.026003975 0.04291525 -0.025593469 -0.024150755
0003d0 65 a9 33 bd 57 9c e4 3d 24 0f 01 ba 5c e1 d0 bd
       -0.04386272 0.11162632 -0.00049232156 -0.10199234
0003e0 86 8a ae bc b8 b0 0e bd d2 1c 7a 3c af 65 65 bc
       -0.021306287 -0.0348365 0.01526566 -0.014001294
0003f0 ab b3 ee 3c 0a ae 19 be b2 64 c8 3d 45 42 d4 3d
       0.029138407 -0.15007797 0.09784831 0.103642024

mu_head.bias f4 [4]
000000 94 96 85 3d 4d 8c 09 bd e5 2c 87 3d 3d 29 d1 3c
       0.06522861 -0.033581067 0.0660036 0.02553236

sigma_head.weight f4 [4, 128]
000000 10 88 18 3e fc 2d d0 3c 0b a3 0f be 06 5a bf 3d
       0.14895654 0.025412552 -0.1402704 0.093433425
000010 86 ae 1e bf 2e 70 86 3e c8 60 e5 bb 88 e4 52 be
       -0.6198505 0.2625746 -0.0070000626 -0.2059499
000020 68 0a 89 bc 78 e8 48 be aa f2 ab be 18 ba c7 3d
       -0.016728595 -0.1961993 -0.33583575 0.097522914
000030 c7 c5 ef 3c 9d 3e 05 3f 9b 81 67 be 21 5c 3b be
       0.029269112 0.52048665 -0.22608034 -0.18296863
000040 57 14 23 3d 9f 4c 26 3d 30 74 16 3e 5b c1 b5 be
       0.03981432 0.040600415 0.1469276 -0.3549908
000050 a3 9a 38 3d 41 96 5b be 02 8a 8d be 55 87 36 be
       0.045069348 -0.21444036 -0.27644354 -0.17825063
000060 69 39 a9 3d f6 8c 55 3e 1a 5d 52 be 81 d2 73 bf
       0.08262903 0.20854554 -0.20543328 -0.9524308
000070 e6 d1 dd 3e 3f 54 79 bd f3 13 44 be 75 a8 9a 3b
       0.43324202 -0.06087136 -0.19148235 0.0047197887
000080 f6 d5 32 be 25 c2 df be a1 14 b3 be 0e 64 e5 3e
       -0.17464432 -0.43702808 -0.34976676 0.44802898
000090 25 35 d5 3c 25 eb 14 be 01 df 0a be da af 88 3e
       0.026026318 -0.14542826 -0.13561632 0.26696664
0000a0 ac 55 47 3d b3 bc 0d be 20 7f 6d 3e 46 a6 9f 3f
       0.048665687 -0.13841514 0.23193026 1.2472618
0000b0 dc ad ff 3e 67 d6 ae be 94 9d 8c 3e dd bd fe bd
       0.49937332 -0.3414795 0.27463973 -0.12438557
0000c0 e7 66 54 bd 35 ef f8 bd 1d 80 4d 3e 5f 7d 2f 3e
       -0.051855948 -0.12155 0.20068403 0.17137669
0000d0 d1 b6 a1 bd 15 71 19 39 1c a2 21 3e 88 1d 01 3f
       -0.078961976 0.00014633343 0.15784496 0.50435686
0000e0 97 ad b2 be 46 c6 2b be 6e 80 21 bd 3f eb e0 3c
       -0.34898064 -0.16774854 -0.03942912 0.027455924
0000f0 1b 51 94 3d 42 cf 12 be dd 31 e8 bd d0 19 e4 bd
       0.07242032 -0.14336875 -0.11337636 -0.11137736
000100 de 95 a6 3c 5e f9 91 3d 22 34 20 3e 18 49 5e 3e
       0.020335134 0.07127641 0.15644887 0.2170757
000110 f1 8e b3 3e f4 62 9d 3e d6 c9 03 be e0 e5 03 3d
       0.35069993 0.30739558 -0.12869963 0.032201648
000120 74 f3 37 be 10 11 95 be 9d f5 a7 be 31 a4 16 3f
       -0.17963964 -0.2911458 -0.32804576 0.58844286
000130 fa e7 20 3d ef e4 45 bd d1 4d 90 3d d7 be a4 be
       0.03928373 -0.04831403 0.07046092 -0.3217685
000140 bd 0c 09 be 39 3b dc 3e 01 ab 8c 3c e7 29 aa 3e
       -0.13383766 0.43013933 0.017171385 0.33235094
000150 38 44 20 3f b5 10 c8 bd f2 af c7 3e 6b 1e 8e 3e
       0.62604094 -0.097688116 0.39001423 0.27757582
000160 1e b5 1e 3f 27 01 98 3e 78 17 19 bc 03 70 45 bd
       0.6199511 0.2968838 -0.009343974 -0.048202526
000170 46 3d 9d bd 9f fa a1 be b3 4a 69 be d1 85 5a be
       -0.076777026 -0.3163652 -0.22782402 -0.2134011
000180 6b ea ab bb 0e d8 bd 3e f5 3f b9 be d3 db 0d 3b
       -0.0052464507 0.370789 -0.36181608 0.0021645918
000190 76 de 3c be b7 62 b5 bd c5 45 c1 3d 78 6c 9c 3e
       -0.18444237 -0.08856719 0.094371356 0.30551505
0001a0 ca 30 4c be aa f9 b6 bd 24 4a 85 bc 2d eb 0c bf
       -0.19940487 -0.089343384 -0.016270705 -0.5504635
0001b0 d5 7a cc 3e a8 6e eb bd a4 ff d3 be 3d 62 94 bf
       0.39937463 -0.114957154 -0.41405976 -1.159248
0001c0 61 58 ca be a2 42 88 bb 01 3d ee be f7 33 07 be
       -0.39520553 -0.004158334 -0.46530917 -0.13203417
0001d0 ba 50 65 be d3 fd fd 3d 4f 72 22 be 33 0a 38 3e
       -0.22394076 0.12401929 -0.15863918 0.1797264
0001e0 d5 28 16 be 6c 41 66 3e c1 5d 07 be c5 80 3f bf
       -0.14664014 0.22485894 -0.13219358 -0.7480586
0001f0 a4 54 89 bd d0 bc 69 3e 46 fa 05 bd 90 6a 73 be
       -0.06705597 0.22825933 -0.032709382 -0.23771119
000200 d7 f9 19 3e 4f 9f 61 be 86 5b 25 be 65 f0 27 3e
       0.15036713 -0.22033428 -0.16148195 0.16400297
000210 97 4f 23 bf b2 61 9c 3e c2 c8 d4 3c 4e 05 2e be
       -0.6379332 0.30543286 0.025974635 -0.16994211
000220 85 99 87 bc 00 4b 25 be a6 e6 fc be e3 84 7d 3e
       -0.016552696 -0.16141891 -0.4939472 0.24757724
000230 7f f8 a4 bd de 65 bb 3e 40 67 e6 be af 8b a1 bd
       -0.08055209 0.36601156 -0.45000648 -0.07887971
000240 07 9d 1c bc 09 20 47 3d f6 1c 34 3e 55 5d 91 be
       -0.009558923 0.048614535 0.17589173 -0.2839152
000250 64 cb f3 3d 70 f7 61 be 08 44 c1 bd 59 73 59 be
       0.11904028 -0.22067046 -0.09436804 -0.21235408
000260 7d fc ed bd 3e ff b5 3e 35 e8 3f be 72 e6 55 bf
       -0.11620424 0.35546297 -0.18740924 -0.83554757
000270 ef 64 07 3f 62 8c 1e be 56 b7 91 be 40 8b 43 3e
       0.5288839 -0.1548324 -0.28460187 0.19096088
000280 e8 6d d5 bd 38 5a 00 bf 5c cf 3f be a9 1b ec 3e
       -0.104213536 -0.5013766 -0.18731445 0.46114853
000290 6b e5 0e 3e 50 b2 8a 3a 70 3c 25 bd 94 20 dd 3e
       0.13954704 0.0010581706 -0.04034084 0.43188918
0002a0 1f c4 02 3e a0 62 d4 be bf 0e 8e 3e f0 39 8a 3f
       0.12770127 -0.41481495 0.27745625 1.0798931
0002b0 b2 57 01 3f e4 1b a4 3d 68 f8 88 3e 55 8e bb bd
       0.5052444 0.08013132 0.2675202 -0.09158007
0002c0 c1 11 91 bd 3e c1 51 be ea 0b 07 3e e6 0a fc 3d
       -0.070834644 -0.20483872 0.13188139 0.12306766
0002d0 54 22 06 be 9d 14 05 be 80 8c a1 3e d9 e4 9c 3e
       -0.13099033 -0.12996145 0.31552505 0.30643347
0002e0 b6 67 4b be 6a c7 67 be fd 8e 34 be 4a 97 08 be
       -0.19863781 -0.22634664 -0.1763267 -0.13338962
0002f0 64 12 82 be ed a4 30 be 68 59 43 ba 51 72 96 bd
       -0.25404656 -0.17250414 -0.0007451982 -0.07346023
000300 3c b1 f1 bc 36 f0 7a 3d 6f f5 1b bd 3f ad c1 3e
       -0.029503457 0.06126424 -0.03807586 0.3782749
000310 6e c6 d5 3e c4 24 57 3e bb 2f 13 bd 67 38 d4 bb
       0.41752952 0.21010119 -0.03593419 -0.0064764502
000320 8b 9b 62 bd 98 e1 26 3a aa fa 42 be bb 7e 08 3f
       -0.05532412 0.00063660135 -0.19040933 0.53318375
000330 a4 9c a1 3d e6 a6 0c be e2 1d 98 3d 4a b7 d9 be
       0.07891205 -0.13735542 0.07427575 -0.4252265
000340 31 5e 60 be bc 8c 17 3f c2 4f f8 bc 0b 53 bf 3e
       -0.21910931 0.5919912 -0.030311469 0.37368044
000350 a9 3d 38 3f 26 a2 0e 3d b3 bd 0d 3e ea 3f 74 3e
       0.71969086 0.034822606 0.13841896 0.23852506
000360 38 dc 2e 3f 1b 6d a0 3e d7 db 49 bd 53 45 f0 bd
       0.6830478 0.3133324 -0.04928192 -0.117319725
000370 ec bd f3 bd 13 92 89 be 80 76 86 be 23 30 83 bd
       -0.11901459 -0.26869258 -0.26262283 -0.06405666
000380 30 83 70 be b0 77 bb 3e 4a f7 c1 be 32 10 c7 3d
       -0.23487544 0.36614752 -0.3788398 0.09719886
000390 7d 39 78 be 22 12 24 be ff ef 63 3d 7b be bf 3e
       -0.2424068 -0.16022542 0.0556488 0.37450013
0003a0 dc f0 75 be f6 69 c2 3d 5c 7c 1d bd de 77 e2 be
       -0.24017662 0.09492867 -0.038448676 -0.44232076
0003b0 52 cf cf bd c7 b4 cc bd fd 18 a7 be 02 34 9c bf
       -0.10146965 -0.09995418 -0.32636252 -1.2203372
0003c0 0e 9c 9d be 13 29 f2 bd 53 ea 93 be 97 28 11 bd
       -0.30783123 -0.118242405 -0.28889713 -0.0354391
0003d0 96 e1 6d be d3 37 93 be 8b 2d d8 bd 2d c9 5d 3e
       -0.23230585 -0.28753528 -0.10555562 0.21658774
0003e0 2a d3 2d bd ef 47 8a 3e d0 d7 1f be 39 e9 3d bf
       -0.04243771 0.27008006 -0.1560967 -0.74183995
0003f0 28 53 ad be 80 2a 6e bb 3c 32 0f be 7d df 4d be
       -0.33852506 -0.003634125 -0.13984007 -0.20104785

sigma_head.bias f4 [4]
000000 dc 9d 48 bd d3 d7 b7 bc d3 66 f7 bd 5d db fd bd
       -0.04897867 -0.02244178 -0.12080159 -0.12395356
