DDPG/DDPG_350_checkpoint_critic.pth (torch_old, 10021 bytes, 5 tensors)

fcs1.weight f4 [24, 33]
0.39062324 0.48090798 -0.19261976 -0.1396679 0.012972934 -0.2164842 0.1768946 0.08902569
-0.32745636 -0.09415501 0.14387646 0.035786044 0.0037703896 -0.3215507 -0.36510572 0.022576174
0.14047332 0.0401763 0.07672922 0.016087923 -0.021534577 -0.077522054 -0.06966229 -0.32221276
-0.057636645 0.103504494 0.21467109 -0.39218056 -0.28988066 -0.19025584 0.5223977 -0.11175873
3.6648533 1.3466707 -0.39784613 -0.39969015 0.068104014 -0.057028156 0.000696917 0.004654758
0.01889471 -0.13203532 -0.10604138 0.08546485 -0.018903969 -0.0004873838 -1.6115893 0.4793538
0.40156832 0.028596986 -0.021629216 -0.034909934 -0.0023689382 0.008986733 -0.032993868 -0.0067995084
-0.120507196 0.024292123 0.020101793 0.8248818 -0.29299495 -0.21408887 -0.022107348 0.13987161
0.17849365 0.33205748 0.08767053 0.5557294 -0.7744951 -0.44724834 -0.03810338 -0.16725965
0.11309416 0.07010271 -0.40731665 -0.29524252 0.13339488 0.18918851 -0.00055290543 -0.23756815
-0.20100003 0.9613423 -0.027714439 -0.048614364 0.21734092 0.119774446 0.005307535 0.020969387
-0.031485405 -0.1136512 0.005488776 0.37046137 -0.3306542 1.3722085 -0.5858747 0.09161788
-1.5537895 0.010013446 -3.0777287 0.078005955 -0.006335954 0.41837502 0.12103593 0.23954102
-0.27572834 0.37294507 0.072069466 -0.3137976 0.17024115 -0.20923539 -0.102111846 0.06900622
-0.32958546 -0.22013499 0.017728956 0.03823545 -0.06321764 0.051101968 0.07373954 -0.017695654
0.24141742 -0.04024354 -0.14487286 -0.024140656 0.11062078 0.67399615 0.5734357 -0.42782
-0.039570257 -0.600058 -0.19779389 -3.0301666 0.49701598 -0.27701458 0.63013923 -0.049839716
0.47734454 -0.25951645 0.49186823 0.14852265 0.089808136 -0.0986206 0.20454895 -0.19180705
0.1771027 -0.03537287 6.1517705e-05 -0.30235302 -0.05399208 -0.035196915 0.10249333 -0.010576647
-0.112225674 0.046626978 -0.085768774 0.21475573 -0.02112764 0.027829418 0.07816942 -1.0102162
-0.04411323 -0.17343667 1.007544 0.017157689 0.020610295 -0.16993335 0.5277997 0.32244158
-0.13712722 -0.15129092 0.62529314 0.031896673 -0.09021285 -1.0691602 0.551732 -0.17077722
-0.0018561966 -0.03796223 0.21585378 -0.7984312 -0.70604706 -0.25641832 -0.08915114 0.058245163
-0.024078058 0.07657492 -0.019147139 -0.061528407 0.08458379 -0.031578884 -0.035822406 -0.21491824
0.49675474 0.5294876 0.085974336 -0.678654 -0.075132445 2.1823807 -0.17034797 0.106282
0.43571654 -0.15919179 -0.5247773 0.73883134 -0.44365424 0.14533064 0.06310669 -0.14790921
0.34745815 -0.067874916 -0.032492053 0.35080498 -0.1393504 -0.093659885 -0.0117927715 0.13566568
-0.046319835 -0.044636328 0.01826121 -0.05492498 0.024804384 -0.015969673 -0.05041959 -0.23019232
0.23262426 0.8242967 -0.015739009 -0.17786829 -1.075188 0.08774823 -2.4911833 0.1355909
-0.3426149 -0.7618807 0.026681772 -0.12491304 -0.25059253 -0.23683906 0.09561627 0.16523464
0.6063501 0.15743405 -0.24952148 -0.11534945 0.16883136 -0.17292854 0.6730608 -0.20082615
-0.03869094 0.10195705 -0.053689655 -0.10128705 0.06982923 -0.051322483 -0.13511696 0.25302354
00000000: c5ff c73e 9239 f63e 1d3e 45be 1a05 0fbe
00000010: 6e8c 543c 09ae 5dbe dc23 353e 1a53 b63d
00000020: 5ca8 a7be 58d4 c0bd 5a54 133e 6394 123d
00000030: a418 773b 4ba2 a4be 23ef babe abf1 b83c
00000040: 3dd8 0f3e e78f 243d 3624 9d3d d2ca 833c
00000050: 4869 b0bc e2c3 9ebd 1aab 8ebd 12f9 a4be
00000060: 6714 6cbd 2afa d33d bdd2 5b3e e4cb c8be
00000070: 3d6b 94be 6dd2 42be dbbb 053f c3e1 e4bd
00000080: f58c 6a40 b55f ac3f 7db2 cbbe 30a4 ccbe
00000090: 1e7a 8b3d 5b96 69bd 4fb1 363a f186 983b
000000a0: 14c9 9a3c 4434 07be 392c d9bd 3208 af3d
000000b0: 7fdc 9abc 8c87 ffb9 8f48 cebf dc6d f53e
000000c0: 5d9a cd3e 3a44 ea3c c12f b1bc b8fd 0ebd
000000d0: 3040 1bbb 173d 133c 9424 07bd 69ce debb
000000e0: 7acc f6bd 4600 c73c 84ac a43c 742b 533f
000000f0: 6f03 96be 1d3a 5bbe 781a b5bc 813a 0f3e
00000100: 0ac7 363e 7003 aa3e 9b8c b33d 4844 0e3f
00000110: 5045 46bf bcfd e4be 4a12 1cbd 1d46 2bbe
00000120: e99d e73d 0292 8f3d cf8b d0be 072a 97be
00000130: ab98 083e a2ba 413e dbf0 10ba 1145 73be
00000140: f4d2 4dbe 871a 763f 6409 e3bc db1f 47bd
00000150: 9e8e 5e3e 4e4c f53d d5ea ad3b fec7 ab3c
00000160: d7f6 00bd f6c1 e8bd 31db b33b 1dad bd3e
00000170: 824b a9be 87a4 af3f e2fb 15bf 28a2 bb3d
00000180: 93e2 c6bf 700f 243c 82f9 44c0 96c1 9f3d
00000190: d69d cfbb 4035 d63e b0e1 f73d 3e4a 753e
000001a0: 442c 8dbe a8f2 be3e 2899 933d 14aa a0be
000001b0: b253 2e3e cd41 56be 0420 d1bd 2253 8d3d
000001c0: 6dbf a8be 116b 61be 513c 913c c69c 1c3d
000001d0: 4078 81bd 4c50 513d c204 973d 7af6 90bc
000001e0: 2136 773e 69d6 24bd 8d59 14be a0c2 c5bc
000001f0: 268d e23d 038b 2c3f afcc 123f 390b dbbe
00000200: 6c14 22bd 679d 19bf 7b8a 4abe 40ee 41c0
00000210: e178 fe3e dbd4 8dbe ce50 213f bb24 4cbd
00000220: 8166 f43e 57df 84be 27d6 fb3e 5216 183e
00000230: 54ed b73d 99f9 c9bd 4875 513e 1169 44be
00000240: 695a 353e 24e3 10bd 1103 8138 04ce 9abe
00000250: cd26 5dbd a42a 10bd 06e8 d13d ac49 2dbc
00000260: 93d6 e5bd eefb 3e3d 8aa7 afbd ede8 5b3e
00000270: df13 adbc 85fa e33c 4a17 a03d c44e 81bf
00000280: 13b0 34bd 6299 31be 34f7 803f 488e 8c3c
00000290: ecd6 a83c 0203 2ebe e21d 073f 1017 a53e
000002a0: 146b 0cbe 02ec 1abe 3613 203f 16a6 023d
000002b0: 84c1 b8bd 3eda 88bf 4f3e 0d3f 39e0 2ebe
000002c0: 9f4b f3ba 497e 1bbd c608 5d3e fd65 4cbf
000002d0: 80bf 34bf 4349 83be df94 b6bd 7b92 6e3d
000002e0: 593f c5bc 50d3 9c3d 76da 9cbc 3605 7cbd
000002f0: 443a ad3d dc58 01bd 84ba 12bd 8713 5cbe
00000300: a356 fe3e 808c 073f 5013 b03d 45bc 2dbf
00000310: 0adf 99bd 20ac 0b40 b36f 2ebe 61aa d93d
00000320: 3d16 df3e 2c03 23be ce57 06bf 0d24 3d3f
00000330: a626 e3be 8ed1 143e 153e 813d 8375 17be
00000340: 09e6 b13e 0102 8bbd 6316 05bd b69c b33e
00000350: dfb1 0ebe c1d0 bfbd 7836 41bc f2eb 0a3e
00000360: deb9 3dbd 95d4 36bd 8898 953c 04f9 60bd
00000370: 9032 cb3c d5d2 82bc c684 4ebd 89b7 6bbe
00000380: 0e35 6e3e 1c05 533f 18ef 80bc 1b23 36be
00000390: c39f 89bf 58b5 b33d 8c6f 1fc0 57d8 0a3e
000003a0: 386b afbe 9d0a 43bf bb93 da3c 68d2 ffbd
000003b0: aa4d 80be f085 72be 77d2 c33d 4533 293e
000003c0: c339 1b3f 6436 213e 8f82 7fbe 553c ecbd
000003d0: 21e2 2c3e 2e14 31be b64d 2c3f 5fa5 4dbe
000003e0: 647a 1ebd dcce d03d afe9 5bbd 966f cfbd
000003f0: a102 8f3d 8637 52bd 1a5c 0abe 4d8c 813e

fcs1.bias f4 [24]
0.6111876 0.2823893 -1.4291798 -0.711718 0.794441 -0.718632 -0.9159912 0.35016432
1.9132199 0.5248393 0.19687682 -0.83266914 0.0877917 -1.0072628 0.42174914 -0.13915198
-0.96880186 0.27956608 -1.3615371 0.84832346 -0.41132006 0.64751124 -0.19341093 -0.018850869
00000000: ca76 1c3f 5595 903e 5def b6bf 2733 36bf
00000010: 7c60 4b3f 44f8 37bf 667e 6abf bd48 b33e
00000020: 64e4 f43f de5b 063f 149a 493e ce29 55bf
00000030: 23cc b33d fded 80bf 81ef d73e db7d 0ebe
00000040: 6603 78bf 4923 8f3e d946 aebf ba2b 593f
00000050: 8b98 d2be 4cc3 253f 840d 46be 236d 9abc

fc2.weight f4 [48, 28]
0.19619654 0.02471815 0.04928851 -0.44498906 0.27391365 -0.5700414 -0.42808512 -0.16104978
0.27663806 -0.116301104 0.6290466 0.28806782 0.05959625 0.067785256 -0.19129395 0.234006
-0.23241888 0.25201148 -0.5935673 -0.71318966 0.24863517 -0.14851025 0.07258134 0.061614957
0.004520694 -0.15218678 -0.19233808 0.091703944 -0.6495494 -1.2822727 -0.34647605 0.3067647
0.09980662 0.14825717 -0.09711515 0.11458195 0.3875144 0.16900961 -1.0486602 -0.29882392
-0.8996064 -0.018743806 -0.071220465 0.092129976 -0.3652297 -0.22157672 0.029581193 0.5139343
-0.9744065 -0.44334278 -0.18478367 -0.35253003 0.037522662 0.029012624 0.0654667 0.055275097
-1.480299 -2.8058689 0.13574557 -0.18140444 0.5727728 0.075605705 -0.09871799 0.31590068
0.2397619 0.19320907 -1.0459 -0.75926083 -1.0683281 -1.0314206 -0.2515544 0.020609416
-0.23123084 -0.48866406 -1.5683433 -0.11853307 -1.5001216 0.16316922 -0.29813915 -0.8505688
0.25319672 0.18107802 0.25219843 -0.16083927 -0.3288861 -0.42164078 -0.49938938 -0.15174875
0.37637213 0.3868694 -0.8980503 0.4742882 0.41116932 -0.7221044 -1.28053 0.34309554
-0.15231198 -0.33955327 -0.087155536 0.23739608 0.9672667 -0.21049672 -0.054919537 0.17576864
-0.61169624 -1.0025927 -0.40693274 -0.41350466 -0.42209154 0.3652051 1.2306776 -0.053887606
0.077841066 -0.19399929 0.2724355 -0.5380078 0.3784921 0.27391794 0.158926 -0.50347584
0.069223255 0.079778396 -0.23366342 -0.9309698 -1.0915442 -0.07160206 -0.07298628 -0.035153102
-0.9313781 -2.0877383 -0.60233366 0.3511736 0.06285282 -0.7323365 -1.1718322 -0.572206
-0.0384589 0.10725877 0.32076663 0.04165272 -0.62685764 -2.2867525 -0.1985937 -0.29721254
0.10530089 0.1523549 0.3609844 0.22359195 0.36556542 0.1588741 -0.4376697 -0.7725861
-0.5487161 -0.80209434 -0.53872055 -0.2962151 0.30944297 -0.5852243 0.2138452 -0.16946477
-0.5519312 -0.13571015 0.04341165 -0.75280875 0.026632428 -0.022689274 0.9360932 -1.2470357
-0.24747346 -0.10041256 -0.42218447 -0.4383255 0.20579474 0.13568407 -0.2631172 -0.10201866
0.4978379 -0.119679615 0.088774994 -0.18248357 -0.12142204 -0.15072742 0.0483386 0.14463905
-0.106843024 -0.13417068 -0.39481986 0.5802582 0.19958661 -0.6612171 -0.33037257 -0.5862303
0.06813915 0.012587598 0.19939753 0.096182615 0.073031224 -0.8013696 -0.45828155 -0.33147112
0.19992957 -0.16548586 0.1309376 -0.05336107 0.67235184 -0.2591401 -1.796092 0.16908619
-0.29608107 -0.7471699 -0.1949749 0.11755569 -0.28448766 -0.0038123084 -0.6168081 -0.037128527
-1.7126547 -0.11381543 -1.1268619 0.26170287 0.74902725 0.19085617 0.38628277 0.5030409
-0.036935836 -0.3058129 -0.20204262 -0.10750859 0.021891952 0.26569897 0.40038556 0.40539035
-0.06920535 -0.9127946 0.22008127 0.41122264 -0.5192942 0.06976923 -0.02861352 -0.59081155
-1.0259445 -0.23013867 0.21574998 0.47601575 -0.19625644 0.1951509 0.39531526 -0.7537464
0.0780932 -0.055724166 0.03875738 -0.4009192 0.28230378 -1.2190125 -0.054630823 -0.34595516
00000000: bfe7 483e b87d ca3c c0e2 493d 9bd5 e3be
00000010: 693e 8c3e 3cee 11bf f92d dbbe 3cea 24be
00000020: 81a3 8d3e 462f eebd 3309 213f a07d 933e
00000030: 331b 743d ffd2 8a3d 90e2 43be 459f 6f3e
00000040: 37ff 6dbe a607 813e 07f4 17bf 9993 36bf
00000050: 389a 7e3e 1213 18be 87a5 943d f75f 7c3d
00000060: 5422 943b dad6 1bbe 46f4 44be 47cf bb3d
00000070: df48 26bf 8321 a4bf 4f65 b1be 4310 9d3e
00000080: 6a67 cc3d bad0 173e 4fe4 c6bd f1a9 ea3d
00000090: 4a68 c63e db10 2d3e 7f3a 86bf 73ff 98be
000000a0: 9b4c 66bf 9c8c 99bc 09dc 91bd a4ae bc3d
000000b0: 63ff babe 02e5 62be 4254 f23c 3391 033f
000000c0: b472 79bf d3fd e2be ee37 3dbe d17e b4be
000000d0: 5db1 193d e2ab ed3c 6813 863d 2468 623d
000000e0: 707a bdbf 5b93 33c0 e300 0b3e 16c2 39be
000000f0: 3da1 123f 2ad7 9a3d a82c cabd bcbd a13e
00000100: 2584 753e 99d8 453e 0de0 85bf eb5e 42bf
00000110: fabe 88bf 9705 84bf bdcb 80be 14d5 a83c
00000120: c7c7 6cbe 2d32 fabe 79bf c8bf 77c1 f2bd
00000130: fc03 c0bf d515 273e b2a5 98be e0be 59bf
00000140: 00a3 813e 846c 393e 2720 813e 0db3 24be
00000150: c263 a8be 4de1 d7be f7af ffbe 0664 1bbe
00000160: d9b3 c03e bf13 c63e a0e6 65bf e7d5 f23e
00000170: c984 d23e d5db 38bf 68e8 a3bf 38aa af3e
00000180: acf7 1bbe edd9 adbe 9a7e b2bd f517 733e
00000190: ca9e 773f 748c 57be 4ff3 60bd b2fc 333e
000001a0: 2098 1cbf f554 80bf 7d59 d0be e2b6 d3be
000001b0: 621c d8be 2afc ba3e d886 9d3f 40b9 5cbd
000001c0: 236b 9f3d c0a7 46be aa7c 8b3e e1ba 09bf
000001d0: b7c9 c13e f93e 8c3e 7fbd 223e cbe3 00bf
000001e0: ecc4 8d3d db62 a33d 7745 6fbe 0954 6ebf
000001f0: b8b7 8bbf 1aa4 92bd d579 95bd b3fc 0fbd
00000200: cc6e 6ebf 819d 05c0 8a32 1abf 07cd b33e
00000210: fbb8 803d 687a 3bbf 99fe 95bf 187c 12bf
00000220: 1487 1dbd 7caa db3d 863b a43e 0b9c 2a3d
00000230: be79 20bf 275a 12c0 265c 4bbe 3e2c 98be
00000240: fea7 d73d ec02 1c3e f3d2 b83e 4af5 643e
00000250: 642b bb3e e4af 223e 3e16 e0be 34c8 45bf
00000260: a978 0cbf 0e56 4dbf 97e9 09bf 81a9 97be
00000270: 4f6f 9e3e 42d1 15bf 3cfa 5a3e 2c88 2dbe
00000280: 5d4b 0dbf 9af7 0abe 6ad0 313d 13b8 40bf
00000290: 402c da3c dbde b9bc cea3 6f3f de9e 9fbf
000002a0: af69 7dbe 1aa5 cdbd 9028 d8be 336c e0be
000002b0: dbbb 523e c4f0 0a3e 4cb7 86be 29ef d0bd
000002c0: 9ce4 fe3e 961a f5bd aacf b53d f9dc 3abe
000002d0: 1eac f8bd 4a58 1abe b2fe 453d 421c 143e
000002e0: 84d0 dabd 0a64 09be d425 cabe cd8b 143f
000002f0: 6f60 4c3e 8645 29bf 9826 a9be 3013 16bf
00000300: 8a8c 8b3d 363c 4e3c de2e 4c3e 64fb c43d
00000310: 6591 953d 8f26 4dbf e1a3 eabe 95b6 a9be
00000320: 56ba 4c3e 2075 29be 8214 063e 2391 5abd
00000330: 401f 2c3f 03ae 84be 58e6 e5bf ee24 2d3e
00000340: f097 97be 8746 3fbf 80a7 47be 0ac1 f03d
00000350: 5ea8 91be ecd7 79bb 23e7 1dbf 1514 18bd
00000360: 4538 dbbf 1018 e9bd 033d 90bf ebfd 853e
00000370: 40c0 3f3f cd6f 433e dbc6 c53e 4ac7 003f
00000380: 084a 17bd 8293 9cbe 43e4 4ebe 772d dcbd
00000390: c056 b33c b209 883e 56ff cc3e 538f cf3e
000003a0: 89bb 8dbd e8ac 69bf fc5c 613e c68b d23e
000003b0: 77f0 04bf 2ce3 8e3d e766 eabc 6d3f 17bf
000003c0: 2652 83bf 79a9 6bbe 90ed 5c3e 56b8 f33e
000003d0: 73f7 48be a3d5 473e c366 ca3e 86f5 40bf
000003e0: 54ef 9f3d 063f 64bd 0fc0 1e3d 4845 cdbe
000003f0: 1f8a 903e 9a08 9cbf 92c4 5fbd 0921 b1be

fc2.bias f4 [48]
-0.09173083 1.6560582 0.01734655 -0.93369246 -0.11004099 0.7003732 1.3196471 -1.1439182
0.86832285 1.0854256 1.57741 0.69193196 1.0583609 -0.59065354 -0.5453085 -0.9512838
-1.771752 -1.4453142 -0.2208885 1.9392152 0.39022648 1.0780553 1.067238 1.7467374
-0.607152 1.3416747 -0.04821548 -0.12124274 0.64259434 0.19010146 -0.11561014 0.4833519
-0.5333666 0.172519 0.93065786 2.2433028 -1.0922791 2.1327643 2.0233839 1.3111598
0.73003054 -0.21545796 2.2592363 1.6336659 -0.8258956 1.1733913 -0.69625306 0.5191181
00000000: 60dd bbbd b7f9 d33f 5a1a 8e3c 7806 6fbf
00000010: 2c5d e1bd a84b 333f 32ea a83f e96b 92bf
00000020: 684a 5e3f 3aef 8a3f 92e8 c93f 7422 313f
00000030: 5f78 873f 1235 17bf 5699 0bbf 5687 73bf
00000040: c5c8 e2bf 0e00 b9bf 9830 62be 3438 f83f
00000050: c4cb c73e b7fd 893f 419b 883f 1795 df3f
00000060: 506e 1bbf ffbb ab3f 987d 45bd 1d4e f8bd
00000070: 1081 243f f5a9 423e 02c5 ecbd e679 f73e
00000080: b78a 08bf d2a8 303e 983f 6e3f 4692 0f40
00000090: cdcf 8bbf 367f 0840 1f7f 0140 16d4 a73f
000000a0: 48e3 3a3f 03a1 5cbe 5497 1040 f71b d13f
000000b0: e56d 53bf b031 963f a43d 32bf ece4 043f

fc3.weight f4 [1, 48]
0.032849047 0.1710234 -0.1488653 -0.047192957 -0.06663126 -0.05390804 0.040945336 -0.080205075
0.030832153 0.09299989 0.18607606 0.042923782 0.03481903 -0.029478304 -0.037755344 -0.047445748
-0.056340195 -0.075575836 -0.07370841 3.007221 0.026848916 0.049863596 0.057942174 0.043518364
-0.084786385 0.10671485 -0.10663255 -0.027542746 -0.04047904 -0.03676902 -0.03987564 0.050943162
-0.10432839 -0.11393827 0.03970961 0.19470754 -0.14492537 0.09947855 0.05141453 0.10909208
0.059195515 0.052734192 0.30622578 2.0586314 -0.057891212 2.9136755 0.044224497 -0.11331232
00000000: b98c 063d c220 2f3e 2570 18be 674d 41bd
00000010: f875 88bd adce 5cbd 4cb6 273d 8f42 a4bd
00000020: b693 fc3c ba76 be3d b98a 3e3e d9d0 2f3d
00000030: 669e 0e3d 7c7c f1bc 59a5 1abd 7956 42bd
00000040: fac4 66bd 81c7 9abd 6ff4 96bd 4f76 4040
00000050: 42f2 db3c c53d 4c3d c654 6d3d 5040 323d
00000060: 7ca4 adbd 518d da3d 2b62 dabd 53a1 e1bc
00000070: 5acd 25bd 1d9b 16bd a454 23bd c7a9 503d
00000080: 1faa d5bd 7858 e9bd 8ba6 223d 6a61 473e
00000090: 5167 14be 69bb cb3d 0b98 523d ab6b df3d
000000a0: ff76 723d cfff 573d a0c9 9c3e 9ec0 0340
000000b0: 561f 6dbd a979 3a40 bf24 353d 4a10 e8bd
