DDPG/DDPG_350_checkpoint_actor.pth (torch_old, 39079 bytes, 6 tensors)

fc1.weight f4 [80, 33]
000000 3a ec 44 3f 4f a0 b5 be f5 b5 b3 be da 6f cb 3d
       0.76922953 -0.35473868 -0.3509976 0.09933443
000010 b4 08 20 be 1e f4 63 be 23 a8 c7 bc 09 09 54 3e
       -0.1562832 -0.22261092 -0.024372166 0.20706572
000020 4c 4a 04 3e e2 21 6b be 70 6c 29 3e 2a 39 b4 bd
       0.12918967 -0.22962144 0.16545272 -0.08799966
000030 0f b3 04 bc 7e 11 25 bf 43 31 10 3e 8f ef 5b 3e
       -0.0080993315 -0.64479816 0.14081292 0.21478103
000040 79 9f 1a be 2e 2c 9b bd da dd fc 3c e0 73 b9 3d
       -0.15099896 -0.07576786 0.030867506 0.090553045
000050 61 6d 70 bd f3 2c c9 bc 38 fa a5 bc 5c 15 ce bc
       -0.05869806 -0.024557566 -0.020260915 -0.02515667
000060 52 12 33 3e ff fe a6 3d c5 a9 8c bd db a1 b8 3e
       0.17487457 0.081541054 -0.068683185 0.36060986
000070 50 2a 8f 3d b0 e4 a4 3d 26 4c 90 be 40 d8 52 3b
       0.06990492 0.08051431 -0.28183097 0.0032172352
000080 5c 82 dd bf 69 44 93 be 79 d1 7d bd 9f 4d 09 bf
       -1.7305408 -0.2876313 -0.061967347 -0.53634065
000090 07 49 32 3e 68 b1 2b 3d a5 db 74 3c d1 56 95 3d
       0.1741067 0.041917235 0.014944945 0.072919495
0000a0 25 b7 78 bd bc 40 5b 3d f6 35 ff 3d 5b 22 0d be
       -0.060721535 0.053528532 0.12461464 -0.13782637
0000b0 42 21 65 3e 19 65 c2 3d 1f b6 78 3e 13 e2 b5 3d
       0.22375968 0.09491939 0.24288224 0.08881011
0000c0 2a 51 f7 3e cd 7b b4 bd bc 2f 16 bc 09 52 d6 bb
       0.4830411 -0.088126756 -0.009166654 -0.006540541
0000d0 0c 20 10 3e ad d1 09 3d cc 70 b3 bc 6a 69 89 be
       0.14074725 0.033647228 -0.021904372 -0.26838237
0000e0 9a fa 2d 3e 98 c5 b4 be cb 0d 88 3d 48 32 02 be
       0.16990128 -0.35307002 0.06643256 -0.12714493
0000f0 a2 1a 21 be 6c c2 8e 3d 68 c9 ab 3d fe 8d 4f 3e
       -0.15732816 0.06970677 0.083880246 0.2026901
000100 97 7a ba bd 59 80 49 bf 46 65 49 bf 95 38 92 bf
       -0.091054134 -0.7871147 -0.78670156 -1.1423517
000110 92 c5 ba be 52 25 57 bc ac df 47 3d 64 7f d1 bd
       -0.3647886 -0.013131456 0.048797294 -0.10229376
000120 81 56 1c 3d fb fc 94 bd b8 3d 3d be c5 ab 87 3d
       0.038168434 -0.07274815 -0.18480575 0.06624559
000130 d8 f6 1b bd 74 21 31 bd 1d e6 27 bd d9 28 81 3f
       -0.038077205 -0.043244794 -0.040990938 1.0090591
000140 a6 64 af 3f 6d e1 b4 3e c3 45 94 3d c6 77 5b bc
       1.370259 0.35328236 0.072398685 -0.013395255
000150 c1 c5 db bc 5b 52 37 bd d0 94 4c 3c c4 1c 7b 3c
       -0.026827695 -0.044756275 0.012486652 0.0153266825
000160 70 63 46 3d c4 1c d7 3d 1b 1b 26 3e f8 b2 5e 3d
       0.048434675 0.105035335 0.16221277 0.054369897
000170 c9 1b ff be d3 b7 90 be e3 cb 3d be f8 8e b2 3d
       -0.49825886 -0.28265247 -0.18534808 0.087186754
000180 d5 9b 10 3e 26 11 a2 3d f3 e0 cb be 10 0c b9 be
       0.14121945 0.07913427 -0.3982006 -0.36142015
000190 00 fa 4f 3e b8 d9 2e be 2c 03 06 3d c0 6b f0 bd
       0.20310211 -0.1707524 0.03271787 -0.11739302
0001a0 e4 86 1d be 85 61 5b 3e 41 11 ee bd 78 58 a8 bb
       -0.15383488 0.2142392 -0.11624385 -0.0051374994
0001b0 fa ec 83 3d 92 7f 0d 3e bc af 3b bd 2e ae c6 3d
       0.06441684 0.13818195 -0.04582189 0.09701191
0001c0 10 51 c7 3e 42 bd d5 be 91 f0 b7 3e 8c e4 89 be
       0.38929033 -0.41745955 0.35925725 -0.2693218
0001d0 66 3e 30 bd 2d ee 37 be 27 dc 8a 3d ea 9c 52 bd
       -0.043028258 -0.1796195 0.06780272 -0.051419176
0001e0 b2 a4 5f 3e a1 8a d0 bd 0d 53 54 3e dd 9a 90 bb
       0.2184017 -0.10182691 0.20734806 -0.0044129924
0001f0 5d b5 f7 3d 6c 35 f7 bd 58 a8 f1 3e de c1 37 be
       0.12095139 -0.12070736 0.4719875 -0.17945048
000200 46 f7 e2 3d d7 17 b8 be 42 87 8c bd bc ce e7 bf
       0.1108232 -0.35955688 -0.06861736 -1.8109965
000210 7b fc 82 bf 63 28 76 bc 1c 76 42 3e 3c 76 81 bd
       -1.0233301 -0.015024277 0.18990368 -0.063213795
000220 01 79 c9 bd 7e 1c 5e 3e 0c cd 37 be 8f b4 4d bc
       -0.09837533 0.21690556 -0.17949313 -0.012555256
000230 a5 6b c9 bd 34 82 05 bd c6 d7 70 bd f7 16 7a 3d
       -0.09834985 -0.032594875 -0.058799528 0.061057057
000240 ef 55 d9 3c f1 80 96 3f 6b 5f 11 be a7 a0 8e be
       0.026530234 1.17581 -0.14196555 -0.27856943
000250 fc 0b 50 bd 6e 4b ad 3b 72 ba 3b be 63 42 e3 3d
       -0.05079268 0.005288533 -0.18332842 0.11096647
000260 65 3a 61 bd b6 f0 0d bd c4 ed 81 bd 94 0b 4f 3e
       -0.05498733 -0.034653388 -0.06344178 0.2021926
000270 47 b4 b2 bd a2 6a d3 bd 69 70 03 bf db 42 3f 3e
       -0.087257914 -0.10323073 -0.513434 0.18677847
000280 e3 02 6a 3e aa 78 a0 bd 59 d0 5b be 08 93 cf bd
       0.22852664 -0.07835515 -0.21466197 -0.10135466
000290 2b 28 84 bf 2b cc e0 3e 42 52 42 bf a8 b7 c5 bd
       -1.0324758 0.43905768 -0.75906765 -0.0965417
0002a0 cf c2 5b be 8f b7 0c 3e 48 95 95 3e b0 83 1f 3e
       -0.21461032 0.13741897 0.29215455 0.15577579
0002b0 11 f2 3f bd 2d 1d 8d 3d a2 38 b7 bc 6a 97 ee 3e
       -0.046861712 0.068903305 -0.022365872 0.46599895
0002c0 d2 0b 11 be 9b b8 f1 bd d9 11 9e be 63 6e 46 3f
       -0.14164665 -0.11802789 -0.30872992 0.77512187
0002d0 2d f0 80 3e 94 fd aa 3c 2c 00 0e 3e 4a 47 49 be
       0.2518324 0.020872869 0.13867253 -0.19656101
0002e0 e1 ca a1 3d 81 2f 88 bd 76 c0 01 bd 10 3f 6b 3e
       0.07900024 -0.06649686 -0.031677686 0.22973275
0002f0 7a 11 64 be e3 6c b0 3e d8 58 eb ba f2 42 e5 3d
       -0.22272292 0.34458074 -0.0017955555 0.111944094
000300 ef a0 94 3e d0 1c 8a be 60 b9 59 3c 31 05 93 be
       0.29029033 -0.26975107 0.013288826 -0.28714898
000310 72 0a a1 3d c4 f4 db 3e 4c d5 00 3e 6d 0f b5 3e
       0.078633204 0.4296018 0.12581366 0.3536333
000320 01 89 0e bd 53 38 0b 3c c1 94 51 bd 2a 05 57 3e
       -0.034798626 0.008497315 -0.051167253 0.20998064
000330 0f 28 9c 3e ad 43 e7 bd 7c 33 97 be f6 6b 5c be
       0.30499312 -0.11292205 -0.29531467 -0.21525559
000340 1d 12 a0 bd 13 85 8f 3d 5d a2 db bd f5 ff 22 bf
       -0.07815955 0.07007804 -0.10724328 -0.6367181
000350 ed 1d e2 bd 71 78 23 3e 81 9d ac 3e da 7a 13 3e
       -0.11040864 0.15963914 0.33713916 0.14402333
000360 89 2a cf 3d 4b df 6c bd b3 9c ac bd 40 05 e2 3c
       0.10115535 -0.057830136 -0.084283255 0.027590394
000370 f0 fd a6 3d 62 22 e3 bd 5a 1b 4b be bb 91 64 3e
       0.081539035 -0.110905424 -0.19834653 0.22321217
000380 7d 00 b4 3d 49 06 42 3f 9e d8 97 be 44 b5 e4 bd
       0.08789156 0.7579084 -0.29657453 -0.11167386
000390 3b 81 32 bf 38 89 30 3d 19 42 45 bf 53 69 7c bd
       -0.6972844 0.043099612 -0.7705398 -0.061623883
0003a0 6c fe 60 be 56 9b 89 3f ea d1 a0 be a4 51 e6 3c
       -0.21972054 1.075053 -0.31410152 0.028115101
0003b0 14 2c 1f 3c 33 29 1f 3e d9 4d 3b be f7 37 34 3f
       0.009715099 0.1554306 -0.18291415 0.70397896
0003c0 11 ce 84 be ae a2 5b 3e 11 50 f7 3d 4b a1 9c 3d
       -0.25938466 0.21448776 0.12075818 0.07647952
0003d0 39 ad 3b 3d d4 70 2f 3f 42 a8 af be fa 75 fc 3d
       0.045819495 0.6853154 -0.34308058 0.1232719
0003e0 36 27 8e 3c c6 68 30 3e f7 01 d2 bd 6f c7 37 bc
       0.017352682 0.17227468 -0.10254281 -0.011216982
0003f0 4d ed ca 3d de e2 aa bd 98 da a8 bd 8c 3f c1 3c
       0.09908543 -0.08344053 -0.082448184 0.023589872

fc1.bias f4 [80]
000000 c0 7d a0 be 1c 39 7f 3e e7 af 81 3e d2 53 cb be
       -0.3134594 0.24924129 0.25329515 -0.39712387
000010 07 35 6b be 58 d4 76 be fc 05 35 bf 10 a2 ce 3d
       -0.22969447 -0.2410444 -0.70712256 0.10089505
000020 1d 5b 43 be 83 42 46 bf ed 7f a2 be 83 80 80 bf
       -0.19077726 -0.7744524 -0.31738225 -1.0039219
000030 88 bc 05 3e 7c c0 a0 be 42 45 5b 3f b7 91 7f be
       0.130602 -0.31396854 0.85652554 -0.2495793
000040 a1 d2 0d bf 30 ef df bd e7 bd 0d bf 50 5c b1 be
       -0.5539952 -0.10934293 -0.55367893 -0.3464074
000050 62 4c 2b bf cd b7 b0 be 3a 30 a1 bc 96 0c 86 3e
       -0.66913426 -0.3451523 -0.019676317 0.26181477
000060 5d 2c 05 bf 00 cd e5 3c fa b7 9d be c5 e8 c6 be
       -0.5202082 0.028051853 -0.30804425 -0.38849464
000070 92 0a 99 3d 59 f4 bb 3e c5 28 02 3e 9d af 06 bf
       0.07472719 0.3670986 0.12710865 -0.52611715
000080 34 1f 0f bf 1d 0f 30 bf 38 ac 17 bf 09 44 99 be
       -0.5590699 -0.6877306 -0.5924716 -0.2993472
000090 51 e7 fb bd b3 5b 47 be 3e c1 3d bf b9 06 61 bf
       -0.122999795 -0.19468574 -0.7412299 -0.8790088
0000a0 0d 38 ed be 0b 73 3d bf 19 b8 9f 3e ef c6 66 3e
       -0.46331826 -0.74003667 0.31195143 0.22536825
0000b0 e3 bd 94 3e 9c cd f7 be 77 b5 72 be c9 06 50 bf
       0.29051122 -0.48399055 -0.23702036 -0.81260353
0000c0 d9 b9 7b 3e 06 01 6f bd e9 79 25 3d f2 7e 8d 3e
       0.24582614 -0.058350585 0.040399466 0.27635914
0000d0 77 6e 35 bf e0 02 6d 3e 22 b4 3a bf 29 99 cf 3e
       -0.7087168 0.23145628 -0.7293111 0.4054654
0000e0 56 b3 23 3e 92 05 10 bf eb 05 f5 bd 90 92 72 3f
       0.1598638 -0.562585 -0.119640194 0.94754887
0000f0 74 fe 0b be b6 18 31 be 95 8c 25 3f 62 a6 b9 be
       -0.13671285 -0.17294583 0.64667636 -0.36259753
000100 eb 51 cc be e6 3b 90 3e 22 b9 ae be c7 8f 98 3d
       -0.39906248 0.281707 -0.3412562 0.07449298
000110 71 e7 4e 3d 08 43 dc bd 50 4d 95 bf 1e 13 23 bf
       0.05051369 -0.10754973 -1.1664219 -0.63701046
000120 c7 96 09 3f a7 0f a0 be 7c ff ea be bc a8 93 bf
       0.5374569 -0.31261942 -0.45898044 -1.1535869
000130 66 6f 2e 3f 87 97 43 bf 74 2d 43 bf 25 10 19 bc
       0.6813873 -0.7640309 -0.7624123 -0.009342228

fc2.weight f4 [80, 80]
000000 7a 7b fb be f7 b8 b8 3c dd 41 67 3f 03 10 24 bb
       -0.49117643 0.022549136 0.90334874 -0.0025033958
000010 48 c9 89 3d da c8 e6 bd 03 14 7e 3e f8 fb 0f bf
       0.067278445 -0.11268778 0.24812321 -0.5624385
000020 61 b0 b0 3d 33 d5 da 3d 84 49 2c bd 8d 5d 60 3e
       0.086273916 0.10685196 -0.042062297 0.21910687
000030 14 7a 1e bf 25 65 4c be 58 5a 1e be d5 1e cc be
       -0.61905026 -0.19960459 -0.15464151 -0.39867273
000040 18 e5 99 3e 5d 1e 4b bf 5f d3 0b bf 4b 9c 46 bf
       0.30057597 -0.79343206 -0.546194 -0.77582234
000050 9f 27 3f 3f 40 a3 bf 3d b1 fe db 3e 37 17 0e be
       0.7466983 0.09357309 0.42967752 -0.13876043
000060 9f 2a 3c be 18 58 29 be 7a 8b 0a 3f 95 cf 2f bf
       -0.18375634 -0.16537511 0.54119074 -0.6867612
000070 12 4f 81 bf 5a 40 03 bf b0 03 e0 be 53 fd b2 3e
       -1.0102255 -0.5127007 -0.43752813 0.34958896
000080 43 e1 ee bd 1b 5d 14 3f f7 92 4b be 80 fc 83 bd
       -0.11664059 0.5795457 -0.19880281 -0.06444645
000090 2e ff 5a be 01 ba 85 be 46 ff 4a 3f 0d 2a 9c 3e
       -0.21386406 -0.26118472 0.79295766 0.30500832
0000a0 e9 07 ea 3e a4 98 35 3f 94 d4 33 bd 4e b1 55 be
       0.4570916 0.70936036 -0.043903902 -0.20868418
0000b0 c1 f6 12 bf b3 59 0c bd 07 ff da 3e 08 4b b9 3e
       -0.57407767 -0.03426523 0.42772695 0.36190057
0000c0 2f 71 d9 be de 1d b2 be 41 41 43 3f 40 e7 82 3f
       -0.42469165 -0.34788412 0.76271445 1.0226822
0000d0 a7 63 82 3e 8b c3 52 be 47 4e 84 bf 0c c1 07 bf
       0.25466654 -0.20582406 -1.0336388 -0.5302894
0000e0 e5 53 a3 bf f9 11 d4 3e a0 93 0e 3e db 95 42 bc
       -1.2759978 0.41419962 0.13923502 -0.011876549
0000f0 ea 00 08 3f 70 a9 0c 3e 1c be 92 bf 78 cf 7e be
       0.53126395 0.1373651 -1.1464267 -0.2488383
000100 33 64 1f bd 87 f2 12 bf 79 a6 65 3f c3 02 7a 3d
       -0.038913917 -0.5740132 0.8970714 0.06103779
000110 48 89 e8 3e b5 8b 16 bf 6f c4 e8 bd f7 44 94 bd
       0.45417237 -0.58806926 -0.11365592 -0.072397165
000120 dc 2b 47 bf 59 47 02 3e 1b d1 3c bf 40 74 05 3e
       -0.778013 0.1272253 -0.7375657 0.13032627
000130 93 16 cd be e5 ac 73 be 72 b6 82 bf 41 b7 ff 3e
       -0.40056285 -0.23796423 -1.0211928 0.499445
000140 14 88 c7 be 9d 0b e0 bd df 53 ce 3e 36 9b 5b 3e
       -0.38971007 -0.10939715 0.40298364 0.21445927
000150 03 ec 1e 3f 3c 51 81 3d c5 e2 39 bf 93 0f 0a bf
       0.62078875 0.06314322 -0.7261165 -0.53930014
000160 73 80 6c 3d 53 3d 1e 3f 9b 7f 18 bf 61 fb e3 3d
       0.057739686 0.61812323 -0.5956971 0.11131931
000170 92 f7 f5 be 06 b0 3d be 71 38 fe be f8 cf e6 3e
       -0.48040444 -0.18524179 -0.49652436 0.45080543
000180 56 fe 92 bf 40 d0 f0 bd ca 3e 89 bf 32 cc 8c be
       -1.1483867 -0.117584705 -1.0722287 -0.2749954
000190 e9 7c 51 be 59 79 e3 be c9 8c 51 3f 16 db 92 be
       -0.20457806 -0.44428518 0.81855446 -0.28682774
0001a0 3b 27 e8 3d 21 90 59 be 01 2f c0 be 79 84 28 3f
       0.113356076 -0.21246387 -0.3753586 0.6582714
0001b0 04 48 23 be 4b 60 77 bf e3 92 3d be a0 ee da be
       -0.1594544 -0.96631306 -0.18513064 -0.4276018
0001c0 c7 df 02 3e 0c 38 0e 3e 67 e4 ff be d5 2a d1 bd
       0.12780677 0.13888568 -0.49978945 -0.10213248
0001d0 96 89 db 3e 23 aa a6 3e d0 6b 47 bd 21 ee 6f bd
       0.42878407 0.3255168 -0.048686802 -0.058576707
0001e0 42 a2 29 3f 71 17 2a 3f 57 00 10 3f 0c b7 fc bc
       0.6626321 0.6644202 0.5625052 -0.030849002
0001f0 db 54 4a be 4c b1 89 bf f3 76 c9 3e d5 15 51 be
       -0.19758932 -1.0757232 0.39348564 -0.20418485
000200 ff 24 42 be 41 e5 f2 bd 3e 25 fa 3c 9a 23 af 3f
       -0.18959425 -0.11860133 0.030535337 1.368274
000210 e0 5e 5e 3e e7 81 b0 be 52 e9 24 bf 3a 08 88 3d
       0.2171588 -0.34474108 -0.6441852 0.06642194
000220 bb f5 5f bf df 41 30 3f 94 5c a4 3e 42 5c f3 be
       -0.8748433 0.6885051 0.32101882 -0.47531325
000230 2e be 7d 3e 4a cd c6 bd 51 e0 42 bf 77 5a 99 bd
       0.24779579 -0.097071245 -0.7612353 -0.07487958
000240 14 e1 c8 3d 60 77 04 bf dd 02 68 3f 0f 41 af be
       0.09808555 -0.5174465 0.9062937 -0.34229323
000250 f2 aa 3e 3e e4 77 a9 be 58 8e 85 3e 5c 70 1c bf
       0.18619898 -0.33099282 0.26085162 -0.61108947
000260 3f 40 75 bf 51 ef 91 3d e3 c8 8f be f8 f7 a6 bf
       -0.95801157 0.07125724 -0.28082952 -1.3044424
000270 f4 60 70 be b8 4b 61 bf 4d 1a 0f 3d c8 af b6 3e
       -0.23474485 -0.8800616 0.03493719 0.35680985
000280 7b 9b 97 bd 68 a7 45 3e 7c d2 63 bf 82 5a 7d 3e
       -0.074027024 0.19302142 -0.8899305 0.24741557
000290 e1 3d c8 be 76 f8 06 be 5c 35 19 3e 19 1f 04 bf
       -0.3910971 -0.13180718 0.14961761 -0.5160995
0002a0 de fe 98 bf 98 17 e4 3c f4 92 8c 3e 9c 2f 90 be
       -1.1952779 0.027843282 0.27455866 -0.28161323
0002b0 46 f5 f2 3e 76 e1 2a 3e 6e 1f 69 3d 5f 19 85 3b
       0.47452754 0.16687569 0.05691474 0.0040618624
0002c0 a6 4c 1e 3f 82 29 67 bd 1e 14 6a bd fb b2 20 bf
       0.61835706 -0.05643607 -0.05714809 -0.627731
0002d0 85 0e 40 3f bd 7c a3 3e 8a 0b 25 be 61 fa 0f 3f
       0.75022155 0.31931105 -0.16117683 0.5624142
0002e0 a9 5b 80 be fc 78 7c be 51 62 e4 3c 62 8b 35 3f
       -0.2506993 -0.24655527 0.027878912 0.70915806
0002f0 f7 0f 0b bf 04 2d 02 3f ce 84 ee be 91 15 12 3f
       -0.54321235 0.5084994 -0.46585697 0.5706416
000300 8e 76 6e be be 69 8e be 0d d3 2d 3f 19 b8 c1 bd
       -0.23287413 -0.2781505 0.6790016 -0.09458942
000310 5c bd 49 bd 98 e9 6c 3e e1 47 53 bf 5c fa 03 3f
       -0.049252853 0.23135984 -0.82531554 0.51553893
000320 0e d7 cc 3e 26 3c 56 bf f5 5d 3e bf 21 6f 44 3e
       0.40007824 -0.8368553 -0.7436212 0.19183017
000330 aa 51 c4 3e 30 68 8c 3f b4 2b 40 bf ae 12 25 3f
       0.38343555 1.0969296 -0.75066686 0.6448163
000340 a8 ed e0 3e d3 35 d5 3e e7 c9 d3 3d eb c1 e0 bd
       0.43931317 0.41642627 0.10341244 -0.10974487
000350 f3 ef 33 3f a1 bb bc 3e 16 c7 d8 be 2c 89 8e 3b
       0.7028801 0.368619 -0.4233939 0.0043498483
000360 80 55 69 be 57 d2 cd be 17 65 b7 3e e5 2d 75 3e
       -0.22786522 -0.4019954 0.35819313 0.23943289
000370 83 f2 81 3e 5c 49 32 3e 99 ed ba 3e df 22 62 3e
       0.25380334 0.17410797 0.36509398 0.22083615
000380 ca 88 33 3e 4d 01 20 bf 27 66 ae be 32 b9 84 bd
       0.1753265 -0.62501985 -0.3406231 -0.06480636
000390 6a 78 d8 be ba 22 bb 3e ed bd 40 3e 27 4e b7 3e
       -0.4227937 0.36549932 0.18822451 0.35801813
0003a0 39 22 0a 3e b3 5c 90 be 23 a8 bf 3e 12 7a 5c bf
       0.13489617 -0.28195724 0.37432966 -0.86123765
0003b0 f0 19 8b 3e 13 ed 01 3f 56 ca 1a be 20 6b c9 be
       0.27168226 0.5075237 -0.15116248 -0.39339542
0003c0 71 32 3a bd df f4 0f 3f 99 2c 12 bf 57 c0 b1 be
       -0.04545826 0.5623302 -0.570993 -0.34717056
0003d0 f7 4b 7a 3e ed 18 85 bf f7 0a 0c bf 4d b1 cf 3e
       0.24443041 -1.0398232 -0.5470423 0.40564957
0003e0 4a 06 70 3c 7d 79 99 be 99 08 20 3f 15 f0 e0 bd
       0.014649937 -0.299755 0.6251312 -0.10983292
0003f0 a1 86 79 be 48 dd b4 3e cb 71 ca 3d ce 85 df 3e
       -0.24367763 0.35325074 0.098849855 0.43656772

fc2.bias f4 [80]
000000 f5 22 5a bf b2 13 26 bf 06 60 0f be b1 66 2d be
       -0.8520959 -0.648738 -0.14001474 -0.16933705
000010 69 d2 af 3c 75 f1 26 bf 9c 08 28 bf 70 6f 8b be
       0.021462636 -0.65212184 -0.65638137 -0.27233458
000020 33 02 70 bf 0f 6a b3 be 03 21 3a bf e3 5f 04 bf
       -0.93753356 -0.35041854 -0.7270662 -0.5170881
000030 fc c1 80 be 3b 75 98 be 6f 8e 8c bd c1 6a 8b 3e
       -0.25147998 -0.2977694 -0.068631046 0.27229884
000040 55 78 04 3f 8c 2e 5d bf 03 ca ae 3e 17 b1 22 bf
       0.5174611 -0.8639915 0.34138498 -0.6355147
000050 33 29 35 3f 83 3a 2e bf b4 61 32 3f 1d 8f 58 3c
       0.7076599 -0.6805803 0.69680333 0.013217715
000060 4a 53 43 3e 2e 9a 18 bf 89 49 80 be 3f 9b fb 3d
       0.19074741 -0.5961026 -0.25056103 0.1228547
000070 2e 9b ed 3e de 38 53 3d ad 08 f4 be 54 82 5f bf
       0.46407455 0.051567905 -0.4766287 -0.8730824
000080 68 99 40 be e9 96 53 3e 8c 74 2a bf 35 a9 d8 bc
       -0.1880852 0.20663036 -0.66584086 -0.026447872
000090 27 97 c8 3e 96 3e c9 3e 4b 35 17 3e 7d 38 25 3e
       0.3917782 0.39305562 0.14766423 0.1613483
0000a0 51 b2 e3 3e 07 7c 85 3e da 71 8e 3e c9 ce da 3d
       0.44471982 0.26071188 0.27821237 0.106839724
0000b0 e0 48 01 be 5e c1 8a be 30 1a 8e be 1d 61 6a bd
       -0.12625456 -0.27100652 -0.27754354 -0.05722152
0000c0 87 4c 6b bf 63 43 15 bf 8b 67 d4 3e d4 20 aa 3e
       -0.91913646 -0.5830595 0.41485247 0.3322817
0000d0 35 5c c7 be ae 43 3f be 71 28 bd 3d 09 64 03 3f
       -0.38937536 -0.18678162 0.09236229 0.51324517
0000e0 cc db 3a 3e f5 5d 6e be 97 9f 95 3b 38 d4 d2 bd
       0.18247908 -0.2327803 0.0045661437 -0.10294384
0000f0 62 03 ae 3e d5 9f a4 be de a0 ff be bb 85 0e bf
       0.33986956 -0.32153192 -0.4992742 -0.55672807
000100 b1 21 a0 be bd 83 97 3e d0 53 3d bf 89 ce 96 ba
       -0.31275705 0.29592696 -0.7395601 -0.0011505644
000110 fa 0c 18 bf 9c ea 35 bf 49 58 0b 3e 4e 92 06 bf
       -0.593948 -0.7106111 0.13607897 -0.52566993
000120 28 c5 21 bf 1e 89 31 3f 00 fc 30 bf e4 7e 93 be
       -0.6319146 0.6934985 -0.6913452 -0.28807747
000130 c6 b6 0c 3e 6e 08 05 bf 86 1b c3 3e ae b4 fe bd
       0.13741598 -0.5196599 0.38106936 -0.12436806

fc3.weight f4 [4, 80]
000000 ed ee 7e 3e 7e fe 1f be 69 da c9 3e 62 a1 23 bf
       0.2489583 -0.15624425 0.39424446 -0.63918126
000010 0b 51 3e bf c1 5e 62 bf 44 f5 6f 3f 79 73 5f 3f
       -0.7434241 -0.88425833 0.9373362 0.8728557
000020 0d 78 39 bf 60 3c 3e bd a3 08 e2 3f 31 45 8f bf
       -0.7244881 -0.046444297 1.7658886 -1.119299
000030 73 27 24 bf 2d 47 9c be f9 c2 00 3f 65 1f 2b 3f
       -0.64122695 -0.30523053 0.50297505 0.6684478
000040 62 ef 58 bf 4a 3b 97 3e 87 f8 80 bf 8f 39 80 be
       -0.8474027 0.2953742 -1.0075845 -0.25043914
000050 b7 65 23 be b1 20 ad bf f3 1c 7e bf 3c 14 ff 3e
       -0.1595677 -1.3525602 -0.99262923 0.49820125
000060 a2 7d de 3d be ed 5a bf 17 0f 33 bf ca 0f 00 3f
       0.10863806 -0.85519016 -0.699449 0.5002409
000070 c3 32 1b 3f 2e a3 21 be 55 71 e3 be 0a ad cc 3f
       0.6062433 -0.15784904 -0.44422403 1.5990307
000080 4c b7 b0 bf 71 ac bb 3d 7b a7 d2 3e 9a c1 45 bd
       -1.3805938 0.0916375 0.41143402 -0.048280336
000090 f2 3a 8f be 16 cb 30 bf e7 b2 8c 3e 89 cf e9 be
       -0.2797466 -0.69059885 0.27480242 -0.4566615
0000a0 26 d2 ff 3d 7a 68 2a bf 39 00 17 3f 7c 08 1c 3e
       0.124912545 -0.6656567 0.58984715 0.15237612
0000b0 96 69 0f bf 7b 22 1f bb 32 55 d1 be f4 e7 d9 3e
       -0.56020486 -0.0024282027 -0.4088531 0.4255978
0000c0 46 7e 06 bf 04 20 05 3e c7 6e 0c bf ef 45 02 3f
       -0.5253643 0.13000494 -0.5485653 0.5088796
0000d0 ae 20 1b 3e 1b 42 2d bf 29 41 2a be 6c d9 a0 be
       0.15149185 -0.67678994 -0.16626419 -0.3141588
0000e0 91 62 7f 3f 29 bb 16 3f ae 8a 80 be 76 39 19 3f
       0.99759775 0.58879334 -0.25105804 0.59853303
0000f0 30 df 98 3e 9e b1 bd be 85 4e 6a bf a0 65 0a 3e
       0.2985778 -0.37049574 -0.9152606 0.1351533
000100 70 41 4c bf c2 77 31 3e e1 1f eb be 30 f8 93 3e
       -0.7978735 0.1733084 -0.4592276 0.2890029
000110 0c b2 95 3f 36 b2 27 3f aa d6 70 bd 5a 54 f7 bd
       1.169496 0.65506303 -0.05879847 -0.12076636
000120 4e ad a4 bf 7b ea fa be 06 af bb bf 4a 86 39 bd
       -1.2865388 -0.4900702 -1.4662788 -0.045294084
000130 f4 ad b8 bf 49 4d 33 3e b9 32 7d 3e 96 74 48 3f
       -1.4428086 0.1750995 0.2472638 0.78302896
000140 e1 dd a4 bf 16 35 e2 be 6d 7f 56 3f 6c 54 8b 3e
       -1.2880212 -0.44181126 0.83788186 0.27212846
000150 d0 06 74 3e 39 8a 3b 3f a2 2d 5c bf 85 97 a1 3e
       0.23830724 0.73257786 -0.8600713 0.31560913
000160 7e 1c 6e be ee bb b3 3e 25 26 6b be 28 ff 89 3f
       -0.23253056 0.35104316 -0.2296377 1.0780993
000170 aa 02 ad 3f d6 0c ac bf 16 61 de 3e 35 29 0b 3f
       1.3516438 -1.3441417 0.43433446 0.5435975
000180 1e d7 b8 3e 18 b1 95 be 98 1b 5c bf 6a 3d fc be
       0.3610162 -0.29236674 -0.85979605 -0.49265605
000190 e3 dd 39 bf 99 a4 1a 3f 58 28 33 bf 23 7a 43 3f
       -0.726042 0.60407406 -0.69983435 0.7635824
0001a0 cb 7c 9c 3f d6 1e 17 3f 8e e2 ec 3e a0 c0 c1 3f
       1.2225584 0.59031427 0.46266598 1.513691
0001b0 3d 6f a3 bf e6 e8 3d be ee fa 24 3f 61 18 69 3e
       -1.2768322 -0.18545875 0.6444539 0.22763206
0001c0 79 e7 72 be f3 7d df 3e e9 31 94 bb a0 90 b6 3d
       -0.23721112 0.4365078 -0.0045225513 0.08914304
0001d0 58 aa 71 3f 5c 6a 14 3f 4c b6 00 bf c2 6a 89 3f
       0.9440055 0.5797479 -0.5027816 1.0735705
0001e0 f3 dc 79 3f a3 2f 5f bf 59 6f 1d 3f 3e 1d 29 bf
       0.97602767 -0.8718206 0.6149803 -0.66060245
0001f0 5f 4b 64 3f 14 8a 7a 3f 61 01 d1 3d 33 ea 18 bf
       0.8917751 0.9786694 0.10205341 -0.5973236
000200 92 6a 7f 3f a8 7a bb 3e ab ce bc 3f ea 69 b8 be
       0.9977199 0.36617017 1.475057 -0.36018306
000210 fc d1 a6 be ab c4 77 3f bf 47 0d bf 2f d9 b5 bf
       -0.3258208 0.96784467 -0.551876 -1.4206904
000220 b5 ae 0a be 13 13 3a 3e 49 4f 9f 3e f8 a9 53 bf
       -0.13543208 0.18171339 0.31115177 -0.82681227
000230 35 b3 7d 3f 71 a2 3d 3f 49 52 69 be 74 ce 2a 3d
       0.99101573 0.7407599 -0.22785296 0.041700795
000240 47 73 52 bf 98 71 73 bf 14 36 25 bc df f2 13 3f
       -0.8220715 -0.95095205 -0.010083694 0.57792467
000250 20 ca 84 3f de 12 b7 3e 1f b7 82 3e d0 51 97 bd
       1.0374184 0.35756582 0.25530335 -0.07388651
000260 9a 24 93 3d 2b b1 5a bf 67 73 e4 be 6e db cd be
       0.071847156 -0.85426587 -0.44619295 -0.40206474
000270 0a f5 8d 3e 83 71 fa bd e8 c5 ae bf 2e 11 3b 3f
       0.27726012 -0.12228682 -1.3654146 0.7307309
000280 91 97 0c 3f cc 09 bd bf 69 47 b8 bc 77 97 b7 be
       0.5491877 -1.4768615 -0.022494989 -0.35857746
000290 9c 70 d5 3b 87 ea 05 40 2e db a1 bd 41 89 be 3c
       0.006513668 2.0924394 -0.07903133 0.023258807
0002a0 16 20 00 bf e6 2c c6 3d da 4a 00 3f 61 fa 6e bc
       -0.5004896 0.096765324 0.50114214 -0.014586062
0002b0 71 27 9e bc d5 09 e0 bd dc be 61 3e 80 a8 40 3d
       -0.019305917 -0.10939375 0.22045463 0.047035694
0002c0 2b 08 da 3c 4c 5a 20 bf 40 97 1c be 22 86 f7 be
       0.026615223 -0.6263778 -0.15292072 -0.48344523
0002d0 fd 37 22 be 17 47 08 3f 2e 5f 08 bf 48 b8 11 3e
       -0.1584167 0.53233474 -0.5327023 0.14230454
0002e0 ca 4a 09 3e f0 d0 64 3c 73 4f 01 bf 54 17 9b 3d
       0.13407436 0.01396583 -0.50511855 0.07572809
0002f0 b8 70 80 3d 95 84 fb bc 25 23 a7 be a0 e9 43 be
       0.062714994 -0.030702868 -0.32644 -0.1913209
000300 d4 a2 03 3e 6b fa 96 3e 93 0d 41 3e bf 8e 20 bf
       0.12855083 0.2948793 0.18852834 -0.62717813
000310 ce 3b 22 bd 67 e2 84 bc 0c 28 1d 3e 1d b5 47 3e
       -0.039607815 -0.016221238 0.15347308 0.19502683
000320 e0 54 91 be 2f e7 62 be 9a ae 3d 3e 9f 0e 22 3d
       -0.28385067 -0.22158502 0.18523636 0.039564725
000330 b5 83 39 3e ef 3a e2 be 61 20 79 be a3 c1 92 3e
       0.18116648 -0.44185588 -0.24328758 0.28663358
000340 24 6e cd 3f ab 89 06 bf 81 db 67 3c e0 0b 1b 3e
       1.6049237 -0.52553815 0.014151455 0.15141249
000350 e7 7e 99 be a3 a4 f7 bd fa fe 54 be fc 32 fa 3c
       -0.2997963 -0.12091949 -0.20800391 0.03054189
000360 40 5a 18 3e e4 33 2a 3f 37 48 cb be 55 5c 5a bf
       0.14878178 0.6648543 -0.39703533 -0.8529714
000370 ea a9 08 bd 21 e7 58 be 34 39 4d bf e2 06 b5 3f
       -0.033365168 -0.21181919 -0.8016541 1.4142725
000380 ba b7 06 3e 34 7a b8 3d ae 44 19 3d a7 1d cf bd
       0.13156024 0.090076834 0.037419014 -0.101130776
000390 f0 d0 f6 3d f4 2e 4a bd 3a 54 91 bb c7 30 20 3d
       0.120515704 -0.049361184 -0.0044350894 0.039109018
0003a0 be 08 0b 3e d4 b7 52 3e 13 58 e0 bf 64 a4 96 3e
       0.13577554 0.20577937 -1.7526878 0.29422295
0003b0 0a 40 8c 3f 28 85 3c bf af 73 94 3d 71 ac 80 3d
       1.0957043 -0.7364068 0.072486274 0.062828906
0003c0 6e d6 64 bf 32 9c cf bd ce 38 08 3e bb 64 03 3e
       -0.89389694 -0.10137214 0.1330292 0.12831394
0003d0 7d 41 99 bd 92 09 4e bd ba 81 4d bc 11 a7 e2 bd
       -0.07483194 -0.050302096 -0.012543136 -0.11067022
0003e0 6c c0 a2 3d 27 0d ab bd b5 0d 74 bf 4f b3 65 3e
       0.07946858 -0.08352118 -0.95333415 0.22431682
0003f0 37 e3 2d bd ee c3 c0 bd 0b 75 57 bf 5d 43 bc 3e
       -0.042453017 -0.094123706 -0.8416297 0.36770144

fc3.bias f4 [4]
000000 f9 57 d5 3d c7 52 10 bf e4 56 10 3d 9a 9e 0d 3f
       0.1041717 -0.5637631 0.035239115 0.5532013
